checkpoint/checkpoint.pt (torch, 100947 bytes, 22 tensors)

lstm.weight_ih_l0 f4 [48, 3]
-0.18460599 -0.06773415 0.08871609 0.0071980953 0.09373471 0.108650655 -0.25599098 -0.18323725
-0.24842194 -0.050295092 0.13909985 0.7006006 0.09644985 0.278502 -0.025392652 -0.059187796
-0.23087454 0.06682472 0.015273905 -0.24575867 -0.1929996 0.22906286 -0.24853826 0.2121455
-0.17252731 -0.32601756 -0.03753831 -0.1367004 -0.22514457 -0.11592065 -0.16608514 -0.38225567
-0.027096797 -0.2760693 -0.19413093 -0.16632804 -0.15242127 0.12284136 -0.025472492 -0.16474515
0.033756226 0.20314091 0.08018314 0.040400762 -0.24568166 -0.21765521 -0.08679698 -0.11487376
0.19599706 -0.15034255 -0.2070769 -0.0022502108 0.051397208 0.08281438 -0.09280105 -0.2446984
-0.17558685 0.13847436 0.11002122 0.21855801 -0.16646391 -0.26857162 0.05725545 -0.20666836
0.10368216 0.2808141 0.19445807 0.21000758 0.19385391 -0.15899889 -0.30219358 0.06350466
-0.23958014 -0.1926665 -0.078691855 0.039679468 0.025080472 -0.076768845 0.16605559 0.042434275
0.2768771 0.12086924 0.19875115 -0.078376114 0.122835696 -0.2419602 -0.10315403 -0.25016093
0.27212453 -0.23578362 0.26514447 -0.27302617 -0.050490126 0.13281739 0.0066743493 0.27225298
-0.27918848 -0.22754496 -0.01627788 0.25175202 0.2705152 -0.07831311 -0.23711982 -0.13640621
-0.017244846 -0.042924613 -0.054574028 -0.2742141 -0.25660622 0.24925035 0.027219087 -0.26448745
-0.2408714 -0.14168365 -0.2812007 -0.049901392 0.25170675 -0.057471417 -0.6109903 2.313137
-0.27102554 -0.12142269 -0.13751557 -0.28067487 -0.09278282 0.18221888 -0.20210554 -0.078540795
0.20053707 -0.28414297 -0.6008786 1.253068 0.052047815 0.2560289 -0.11512057 -0.1755645
0.17803541 -0.24044348 0.19315788 -0.15845706 0.04375449 0.113858834 0.18952608 0.08178123
00000000: 5a09 3dbe 34b8 8abd c8b0 b53d 00de eb3b
00000010: fcf7 bf3d 3c84 de3d 4011 83be 8ca2 3bbe
00000020: 5262 7ebe 3a02 4ebd 3170 0e3e 905a 333f
00000030: 8087 c53d d097 8e3e 4004 d0bc e76e 72bd
00000040: 606a 6cbe 66db 883d 673f 7a3c 29a8 7bbe
00000050: b0a1 45be 748f 6a3e d080 7ebe ac3c 593e
00000060: 00ab 30be c6eb a6be c5c1 19bd 31fb 0bbe
00000070: 4c8c 66be ce67 edbd 3912 2abe 04b7 c3be
00000080: 1afa ddbc f558 8dbe 42ca 46be e651 2abe
00000090: 5214 1cbe 4094 fb3d b0ab d0bc f4b2 28be
000000a0: f843 0a3d 2c04 503e 0f37 a43d 457b 253d
000000b0: f993 7bbe 02e1 5ebe 9dc2 b1bd ef42 ebbd
000000c0: 74b3 483e 66f3 19be f80b 54be 4678 13bb
000000d0: e185 523d 969a a93d 7a0e bebd 3892 7abe
000000e0: 0acd 33be 39cc 0d3e ce52 e13d accd 5f3e
000000f0: 8475 2abe 3882 89be b184 6a3d dfa0 53be
00000100: 5057 d43d dec6 8f3e 0420 473e 3a0c 573e
00000110: a481 463e 9bd0 22be 1eb9 9abe bb0e 823d
00000120: 7f54 75be 5e4a 45be 3229 a1bd f086 223d
00000130: 9075 cd3c fc38 9dbd 7a0a 2a3e 90cf 2d3d
00000140: d6c2 8d3e 4b8a f73d 6c85 4b3e a883 a0bd
00000150: 4891 fb3d 6ac4 77be 6c42 d3bd 1815 80be
00000160: e853 8b3e 4371 71be 04c1 873e 16ca 8bbe
00000170: bcce 4ebd 4801 083e 80b4 da3b be64 8b3e
00000180: cbf1 8ebe 8c01 69be 3059 85bc a4e5 803e
00000190: f880 8a3e a062 a0bd 8acf 72be 12ae 0bbe
000001a0: 1045 8dbc b8d1 2fbd 0489 5fbd ca65 8cbe
000001b0: e461 83be 7c3b 7f3e 90fa de3c e66a 87be
000001c0: fea6 76be 8515 11be 8af9 8fbe 6765 4cbd
000001d0: b5df 803e 2667 6bbd dc69 1cbf 700a 1440
000001e0: dcc3 8abe 76ac f8bd e2d0 0cbe 9eb4 8fbe
000001f0: eb04 bebd 9697 3a3e c1f4 4ebe ffd9 a0bd
00000200: 9759 4d3e 307b 91be 2ed3 19bf 8864 a03f
00000210: 1730 553d 3816 833e 55c4 ebbd 2ec7 33be
00000220: ea4e 363e d136 76be 2ecb 453e 9142 22be
00000230: e837 333d d22e e93d 2013 423e eb7c a73d

lstm.weight_hh_l0 f4 [48, 12]
-0.015408069 0.22093129 0.04275769 -0.06037374 -0.22888348 -0.13542542 -0.07885188 0.05027935
-0.0027863383 -0.1444556 0.09595367 0.09469876 0.0041316748 -0.06921272 -0.2744145 0.097486615
-0.08658357 -0.07884124 0.06682891 0.14817971 0.20303023 -0.18613 -0.09797473 0.0047163665
-0.15524998 0.17044377 0.098118454 0.051748127 -0.27286524 0.02673176 -0.198542 -0.13952377
0.17089137 0.099782705 0.033498615 -0.12902175 0.48456538 0.41112125 0.60018027 -1.3025359
0.082989454 0.21917677 -0.65473396 -0.1064189 -0.060300145 0.39450735 0.2870922 0.28733048
-0.28242278 0.20197448 0.09027007 0.03844139 0.14655322 0.1423569 0.14971021 -0.22046196
-0.2566191 0.1264221 0.2683457 0.263718 -0.017371615 -0.21954864 -0.28151193 0.2006445
0.038401365 0.2756809 0.030380318 0.114283055 -0.17525683 0.2002483 -0.032771803 -0.25147894
0.077048495 0.24103373 0.20279057 -0.13928522 0.10597239 -0.014717403 -0.12626475 0.053707015
0.04823386 -0.10505457 -0.07936906 0.18909357 0.07284868 0.026974678 0.25831074 0.21560144
-0.17091382 -0.21141577 0.10916084 0.16653511 -0.11309877 0.18064922 -0.19761935 0.24643159
0.21506731 -0.015849452 -0.009101686 0.19813165 0.22443423 0.019849429 -0.10506892 -0.20391038
0.19510762 0.20945686 0.1611235 0.13846222 0.23835558 -0.16890112 0.033384472 -0.17179406
-0.2004038 -0.051614657 0.27301896 0.28238243 -0.11041787 0.02386731 -0.18091485 -0.2299066
0.13462709 -0.15169314 -0.28308836 -0.21938409 -0.23616229 0.14324132 0.12558857 -0.27284172
-0.056513954 -0.12579069 0.10950398 -0.060873806 -0.07613647 0.043948144 -0.1883873 -0.24924283
-0.28025168 0.20600986 0.049130738 -0.2518611 -0.19741985 -0.0745413 -0.25804138 0.2646585
0.08769733 0.031728685 -0.20956811 0.054310143 -0.23358527 -0.25918433 0.10934505 -0.00843513
0.20655522 -0.04182987 0.1957562 0.022277981 -0.18404868 0.21489328 -0.10592832 -0.18664947
-0.109482944 0.003146112 0.10940871 -0.15683053 -0.026015073 -0.11648141 -0.22716147 0.0148997605
-0.1550497 -0.022488803 -0.018104488 -0.2412272 -0.21458158 0.19452174 0.16703308 0.07856649
-0.2537471 -0.09346984 -0.071177945 -0.15884218 -0.14099897 0.089522265 -0.21411844 -0.18643157
-0.16524497 0.17003545 -0.02210742 -0.14864309 0.28835252 -0.26931408 -0.21300586 -0.21171847
-0.16834995 0.02287075 -0.077978104 -0.13423708 0.09232092 0.1474083 0.26164204 0.14026687
0.15670606 -0.012905598 0.09393376 -0.01477778 0.01190441 0.10110669 0.24852654 -0.25406483
-0.27659923 0.08924829 -0.19376561 -0.20739016 -0.1893467 -0.2802853 -0.1435499 -0.2659432
-0.09188725 -0.26956314 -0.0058377683 0.023344249 -0.17022064 -0.17475569 -0.044065326 -0.17698719
-0.11504285 0.11548805 -0.22001538 -0.27691337 -0.08484332 -0.211807 -0.20056696 -0.023370326
-0.06831098 0.22654846 -0.2190623 -0.035849288 -0.10748049 -0.07819033 -0.02619917 0.03421032
-0.03690131 -0.06400621 -0.059153575 -0.2159077 0.13539407 -0.12767403 0.25626647 -0.061655268
0.21545751 -0.10625004 0.12495168 0.026368618 0.053102672 -0.19494152 0.21808434 -0.1756204
00000000: 2072 7cbc d03b 623e b022 2f3d 744a 77bd
00000010: 6e60 6abe f6ac 0abe 187d a1bd b8f1 4d3d
00000020: 009b 36bb 2bec 13be 5c83 c43d 6cf1 c13d
00000030: 0063 873b 66bf 8dbd 0f80 8cbe 10a7 c73d
00000040: ba52 b1bd 8477 a1bd 98dd 883d 6cbc 173e
00000050: 28e7 4f3e dd98 3ebe faa6 c8bd c08b 9a3b
00000060: daf9 1ebe d088 2e3e 54f2 c83d d8f5 533d
00000070: feb4 8bbe 90fc da3c 984e 4bbe 52df 0ebe
00000080: 26fe 2e3e e05a cc3d d835 093d 471e 04be
00000090: f418 f83e 7c7e d23e 6aa5 193f 7fb9 a6bf
000000a0: 60f6 a93d e06f 603e a59c 27bf 27f2 d9bd
000000b0: 49fd 76bd defc c93e c0fd 923e fb1c 933e
000000c0: b899 90be 66d2 4e3e 84df b83d b874 1d3d
000000d0: 0c12 163e 02c6 113e a24d 193e c8c0 61be
000000e0: 9463 83be cc74 013e 9c64 893e 0c06 873e
000000f0: eb4e 8ebc 5cd1 60be 5522 90be c075 4d3e
00000100: c04a 1d3d 0c26 8d3e 25e0 f83c 3c0d ea3d
00000110: 8776 33be e40d 4d3e ba3b 06bd d9c1 80be
00000120: 9acb 9d3d 8cd1 763e 55a8 4f3e c9a0 0ebe
00000130: 0d08 d93d 4321 71bc 8c4b 01be e3fb 5b3d
00000140: de90 453d da26 d7bd 3f8c a2bd bfa1 413e
00000150: b031 953d 00fa dc3c 4e41 843e a0c6 5c3e
00000160: 0804 2fbe 607d 58be b88f df3d 2e88 2a3e
00000170: 54a0 e7bd 1cfc 383e ba5c 4abe 9058 7c3e
00000180: 9b3a 5c3e b6d6 81bc 3d1f 15bc 06e3 4a3e
00000190: 16d2 653e 459b a23c 602e d7bd e2cd 50be
000001a0: 4bca 473e dc7b 563e 8ffd 243e 0ac9 0d3e
000001b0: 7c13 743e 6af4 2cbe 28be 083d c8ea 2fbe
000001c0: a736 4dbe e469 53bd 24c9 8b3e 6e94 903e
000001d0: c422 e2bd 6085 c33c be41 39be a36c 6bbe
000001e0: afdb 093e 7255 1bbe f5f0 90be 39a6 60be
000001f0: 87d4 71be daad 123e 4a9a 003e e9b1 8bbe
00000200: 2d7b 67bd 46cf 00be 9f43 e03d d056 79bd
00000210: 70ed 9bbd f802 343d 9ae8 40be 8339 7fbe
00000220: 267d 8fbe 40f4 523e 503d 493d f0f3 80be
00000230: 6e28 4abe 1ca9 98bd 001e 84be 5281 873e
00000240: a89a b33d f0f5 013d 0699 56be 5074 5e3d
00000250: fa30 6fbe cfb3 84be 4cf0 df3d 8033 0abc
00000260: 3683 533e cc55 2bbd 5074 483e 5080 b63c
00000270: 4277 3cbe fc0c 5c3e f2f0 d8bd 0a21 3fbe
00000280: 9838 e0bd 002f 4e3b ac11 e03d 2f98 20be
00000290: 901d d5bc ce8d eebd 049d 68be 201e 743c
000002a0: 59c5 1ebe 703a b8bc dd4f 94bc 4304 77be
000002b0: 46bb 5bbe b530 473e b80a 2b3e 78e7 a03d
000002c0: 24eb 81be 1e6d bfbd bec5 91bd 86a7 22be
000002d0: 0962 10be 7357 b73d dd41 5bbe ebe7 3ebe
000002e0: fa35 29be c61d 2e3e 9f1a b5bc e535 18be
000002f0: f1a2 933e 89e3 89be 351e 5abe bacc 58be
00000300: ee63 2cbe 705b bb3c fcb2 9fbd 7275 09be
00000310: c012 bd3d 34f2 163e f2f5 853e 1ea2 0f3e
00000320: 8e77 203e 0072 53bc 5860 c03d 801e 72bc
00000330: b70a 433c 0611 cf3d be7d 7e3e c914 82be
00000340: 6a9e 8dbe cfc7 b63d 7e6a 46be 165e 54be
00000350: 1ae4 41be 8e81 8fbe bffe 12be b529 88be
00000360: 622f bcbd 2e04 8abe c04a bfbb 703c bf3c
00000370: 524e 2ebe 28f3 32be d87d 34bd 213c 35be
00000380: 969b ebbd 0085 ec3d b64b 61be 97c7 8dbe
00000390: 56c2 adbd efe3 58be 6d61 4dbe 2073 bfbc
000003a0: a1e6 8bbd 52fc 673e de51 60be b4d6 12bd
000003b0: bb1e dcbd 4022 a0bd a49f d6bc 1f20 0c3d
000003c0: d425 17bd b015 83bd 054b 72bd e816 5dbe
000003d0: bea4 0a3e fbbc 02be 5c35 833e 3c8a 7cbd
000003e0: e5a0 5c3e 9f99 d9bd abe6 ff3d 0003 d83c
000003f0: 3082 593d c09e 47be 8051 5f3e d6d5 33be

lstm.bias_ih_l0 f4 [48]
0.11661103 0.09489441 -0.17192599 -0.04326355 -0.2708182 0.116622575 0.22659256 0.16791296
0.09900839 0.01097247 -0.2694751 0.091904074 0.027798027 0.097495735 -0.27854997 -0.00442372
0.17725343 0.1997849 0.26246172 0.3113678 -0.19765984 0.10990539 0.07371238 -0.2579366
0.28252405 -0.27712828 0.09367499 0.003350525 0.15137908 -0.16626368 -0.20200185 -0.11948143
-0.084438816 0.22263175 -0.169207 -0.13203318 0.27650207 0.11503059 0.024640322 0.43032888
0.016825676 -0.18962559 0.2394535 -0.42561963 0.089000486 0.22144032 0.039555706 -0.1683425
00000000: c4d1 ee3d 0058 c23d 5e0d 30be 1f35 31bd
00000010: afa8 8abe d1d7 ee3d e107 683e 60f1 2b3e
00000020: e9c4 ca3d e0c5 333c a4f8 89be 3438 bc3d
00000030: b0b8 e33c d8ab c73d 1a9e 8ebe daf4 90bb
00000040: ec81 353e 6a94 4c3e 6261 863e 9a6b 9f3e
00000050: 5767 4abe 1416 e13d 84f6 963d 4410 84be
00000060: fea6 903e c2e3 8dbe acd8 bf3d 7b94 5b3b
00000070: 1e03 1b3e 0741 2abe 93d9 4ebe aeb2 f4bd
00000080: 42ee acbd 94f9 633e 9a44 2dbe b533 07be
00000090: ae91 8d3e 2895 eb3d 80da c93c 1154 dc3e
000000a0: 00d6 893c 362d 42be 4c33 753e d1ea d9be
000000b0: e345 b63d 40c1 623e 2a05 223d fa61 2cbe

lstm.bias_hh_l0 f4 [48]
-0.017108202 0.021868795 -0.00922662 0.1293771 -0.28596058 -0.19569312 0.24463136 -0.05886051
-0.31751466 -0.13792877 -0.32120028 0.06287542 0.2264365 0.02398628 0.06468052 -0.27398336
-0.2379713 -0.09580395 0.08596283 0.31442702 -0.022735462 0.26519924 -0.19119628 0.08991044
-0.24189398 0.24478567 -0.13043825 0.011845601 0.024800718 0.16032562 -0.024959862 0.2028302
0.27583617 -0.08905925 -0.09732503 0.22017425 0.047610253 0.27036244 0.2573961 0.43837652
-0.10811563 0.27627265 -0.23695499 -0.40235823 0.08970832 -0.0617062 -0.13567169 0.02810839
00000000: 8026 8cbc 3026 b33c 402b 17bc 6e7b 043e
00000010: 6d69 92be c763 48be a580 7a3e b817 71bd
00000020: 4891 a2be 333d 0dbe 5d74 a4be d4c4 803d
00000030: f8de 673e e07e c43c 3877 843d 8c47 8cbe
00000040: c0ae 73be dd34 c4bd 480d b03d 94fc a03e
00000050: b83f babc 32c8 873e f5c8 43be f722 b83d
00000060: 0eb3 77be 18a9 7a3e 9b91 05be 0d14 423c
00000070: e02a cb3c 662c 243e a078 ccbc b8b2 4f3e
00000080: 663a 8d3e b264 b6bd 5852 c7bd 5c75 613e
00000090: f802 433d f26c 8a3e 6cc9 833e e372 e03e
000000a0: ba6b ddbd 9c73 8d3e 54a4 72be e601 cebe
000000b0: ffb8 b73d a4bf 7cbd 85ed 0abe 9143 e63c

lstm.weight_ih_l0_reverse f4 [48, 3]
-0.12949088 0.1968031 -0.06295786 -0.2484597 -0.0668271 -0.15532215 -0.111345 -0.31138352
4.5350494 0.14301792 0.3488525 -0.07681376 0.28121087 0.19913436 -0.20687993 -0.081679516
-0.31189808 1.3965629 -0.1284743 -0.045372903 0.02165429 0.2731154 0.13677207 -0.18236177
-0.21096168 -0.13369443 -0.3078478 -0.24732389 0.08183533 -0.0076941582 -0.28560272 0.15366748
-0.27396008 0.24573413 0.32042176 -2.1427565 -0.18810757 -0.098561615 0.04071755 0.05311799
0.18557014 -0.023035297 0.20306945 0.013971865 0.11842999 -0.10599966 0.06618699 -1.0751101
0.23984087 -0.058661565 -4.2075677 -0.267312 -0.16529515 0.28656563 -0.058710597 0.12074161
0.20914832 -0.15499142 -0.047030482 -0.38615915 -0.17705697 -0.20448601 0.0074471277 0.11055814
-0.20235126 0.16114172 -0.08919649 -0.2797526 0.15321633 -0.24593078 -0.10803795 0.116209425
-0.1989885 0.014061958 -0.19148284 0.20422688 -0.24987337 0.23504531 -0.026827926 0.31268564
0.31629923 0.209716 0.43784288 -1.3292078 -0.28519976 -0.27010074 0.19820991 -0.064699456
-0.20607926 0.030909639 -0.2616469 0.2122252 -0.26775593 0.20882511 0.21781456 -0.047647044
-0.2765757 0.11828694 -0.11921267 -0.10993858 0.2524972 -0.2414027 0.2684399 0.069351315
0.15218025 -0.14720002 -0.059021175 -0.06927456 -0.2502324 0.019734135 0.24213904 -0.27694857
0.26913017 0.0055277497 0.19864917 0.14030117 0.24892718 0.16432789 0.0051816357 0.02946824
0.16458476 0.2681005 0.27495897 -0.1963207 -0.34261468 1.9222113 -0.1582764 -0.2538228
-0.04817847 -0.3056837 -0.5853805 1.3485988 0.2569033 -0.2070024 0.2880733 -0.17077608
-0.31386507 0.02529365 -0.09868282 -0.082645595 -0.0885781 0.100719094 0.7534684 -1.7376618
00000000: 4299 04be c086 493e 0df0 80bd 386c 7ebe
00000010: a6dc 88bd c50c 1fbe d908 e4bd a96d 9fbe
00000020: 201f 9140 4a73 123e cb9c b23e 8850 9dbd
00000030: dffa 8f3e e1e9 4b3e 55d8 53be 9747 a7bd
00000040: 1bb1 9fbe 93c2 b23f c48e 03be f0d8 39bd
00000050: 5664 b13c c8d5 8b3e fa0d 0c3e 0bbd 3abe
00000060: 5706 58be 31e7 08be 3a9e 9dbe 7942 7dbe
00000070: 4899 a73d 471f fcbb 853a 92be 025b 1d3e
00000080: 7f44 8cbe baa1 7b3e 520e a43e ec22 09c0
00000090: 459f 40be acda c9bd 72c7 263d 4092 593d
000000a0: 1906 3e3e 85b4 bcbc 70f1 4f3e 40ea 643c
000000b0: 6c8b f23d 5a16 d9bd 0b8d 873d 359d 89bf
000000c0: d898 753e 1c47 70bd 65a4 86c0 1edd 88be
000000d0: 2243 29be bbb8 923e 867a 70bd 6147 f73d
000000e0: fa2a 563e 12b6 1ebe 09a3 40bd a7b6 c5be
000000f0: 6c4e 35be c864 51be 0907 f43b 4e6c e23d
00000100: 2b35 4fbe 5602 253e a6ac b6bd bc3b 8fbe
00000110: bee4 1c3e 47d5 7bbe 0043 ddbd 35ff ed3d
00000120: a4c3 4bbe 2064 663c 1414 44be da20 513e
00000130: cede 7fbe b8af 703e 3dc6 dbbc 5518 a03e
00000140: f9f1 a13e cbbf 563e f12c e03e 7b23 aabf
00000150: b405 92be a54a 8abe 8af7 4a3e 2681 84bd
00000160: 7106 53be 3636 fd3c 95f6 85be 9051 593e
00000170: 4e17 89be 40d6 553e c80a 5f3e 8c29 43bd
00000180: 559b 8dbe 6c40 f23d c625 f4bd 7a27 e1bd
00000190: 5047 813e 4532 77be f470 893e 1008 8e3d
000001a0: 24d5 1b3e 9abb 16be 30c0 71bd d2df 8dbd
000001b0: 761e 80be 7ba9 a13c 4cf3 773e 34cc 8dbe
000001c0: 6ecb 893e 2022 b53b b06a 4b3e 1cab 0f3e
000001d0: c4e6 7e3e 9245 283e b6ca a93b 6167 f13c
000001e0: e888 283e 7844 893e 6cc7 8c3e 4b08 49be
000001f0: 316b afbe 050b f63f 3513 22be 10f5 81be
00000200: ca56 45bd 9382 9cbe 7fdb 15bf e39e ac3f
00000210: d488 833e 70f8 53be 587e 933e eddf 2ebe
00000220: ecb2 a0be a134 cf3c 381a cabd 1842 a9bd
00000230: 6f68 b5bd d045 ce3d 4ee3 403f b46b debf

lstm.weight_hh_l0_reverse f4 [48, 12]
0.005229675 -0.18501073 0.21002668 -0.09212757 0.11114345 0.020684334 0.00867595 -0.09456313
-0.072240084 0.056761257 0.11491531 0.073139496 0.019535124 0.0912323 -0.24764666 -0.12564318
-0.24936028 0.18158492 -0.052541986 -0.06519917 0.060655653 -0.19513586 -0.19020241 0.19748339
0.23169735 0.15084314 -0.345838 0.089442134 0.12521347 0.09564571 0.22290787 0.14053501
0.04171515 0.044472333 0.03713186 0.097504385 0.21472143 0.17645533 -0.23301147 0.23205814
-0.19160822 -0.027815633 -0.080636695 0.14373541 -0.15681978 0.16891211 0.122337066 0.022110172
-0.25605893 0.19633551 -0.05375262 0.24451113 0.1338528 -0.23155436 -0.07333709 -0.0014406082
-0.2223468 0.24492632 0.047033206 -0.2059562 -0.10932663 0.25431356 0.71348566 -0.71943253
-0.0854086 0.30309027 0.11911929 -0.2939728 -0.26756716 0.07489654 -0.102726705 0.46541262
0.28399998 -0.0028565824 0.08081648 0.24171364 0.047516525 -0.022081882 -0.057002395 0.23116332
-0.15221643 0.26399004 0.18312153 -0.02504605 -0.120061815 -0.028023899 0.059794337 0.26753342
0.17109954 -0.078063205 0.26855212 -0.19638267 -0.21375845 -0.06584971 0.2322225 0.050719798
0.18340224 -0.073126405 0.092998736 -0.40330926 0.19269618 -0.023090318 -0.31701922 0.062855266
0.005817578 -0.22211382 0.10447596 0.13355772 -0.23194876 0.2607503 0.13113123 -0.016510963
0.04978329 -0.2546161 -0.21797067 0.09044936 -0.10443966 -0.034412503 -0.15442264 -0.23803744
0.21147984 0.18602338 -0.17238373 -0.13103741 -0.20281747 -0.04551035 -0.13940164 -0.14619902
-0.25375503 -0.14494124 -0.040043473 -0.18525203 0.05476636 0.08528519 0.46712393 0.14690347
-0.20546994 -0.02888811 -0.23815075 0.12333315 -0.036793675 0.014004162 -0.47244626 -0.45474276
-0.18753587 -0.15433949 -0.13313463 -0.045492053 0.097197086 0.24555802 -0.08195123 -0.15559542
0.23742288 0.15133259 0.16377711 -0.28187805 -0.03161055 -0.029637132 -0.08090085 -0.22532482
0.19361943 -0.118242815 -0.014529149 0.17731282 0.224805 0.23289645 0.004219658 -0.07531273
0.077721864 -0.059240356 -0.114086166 -0.14801928 -0.22646281 0.031772345 -0.041103005 -0.24968874
0.18854475 0.13032466 0.1560876 -0.18460001 -0.22468247 0.12123364 0.019151479 1.9882402
-1.6708262 0.2770862 -0.028734315 -0.2620098 -0.1816282 -0.15453865 -0.3540336 -1.6692333
-0.7026853 -0.061753944 0.6855047 -0.04858726 -0.95689803 0.96825945 0.3109783 0.019869499
-0.0015136932 -0.413823 0.2748666 0.009986481 0.27996603 0.24658675 -0.985934 -1.0045724
-0.70663095 -1.5038501 -0.18106431 1.097755 -0.22924903 0.14191838 -0.04489958 0.47585732
-0.21000975 -0.2751466 -0.12819634 -0.034603145 0.25564542 0.08879101 -0.21939087 -0.115756854
0.28661126 -0.01020803 -0.24575312 -0.27202812 0.1381804 0.051536996 -0.14023952 -0.22833176
-0.22396626 0.23871526 -0.09978438 0.3564124 -0.21417277 0.105348684 -0.2812657 0.2744086
0.19245538 0.006472225 0.38072103 0.2579742 0.036992036 -0.12309684 0.27421582 -0.073567316
0.059568148 -0.053031903 0.06985318 0.16327322 -0.26005468 -0.059911 -0.07028555 0.15725736
00000000: b25d ab3b 7473 3dbe 3c11 573e 61ad bcbd
00000010: 2d9f e33d 3172 a93c 9225 0e3c 50aa c1bd
00000020: 9cf2 93bd 7e7e 683d b858 eb3d 29ca 953d
00000030: 2008 a03c 00d8 ba3d 1697 7dbe 9ba8 00be
00000040: 4d58 7fbe 66f1 393e 4436 57bd 2487 85bd
00000050: 1072 783d b2d1 47be 6cc4 42be 1639 4a3e
00000060: 1242 6d3e a076 1a3e ae11 b1be 702d b73d
00000070: f637 003e e6e1 c33d f641 643e 69e8 0f3e
00000080: 81dd 2a3d 9f28 363d 9417 183d 61b0 c73d
00000090: efdf 5b3e b5b0 343e 8f9a 6ebe a6a0 6d3e
000000a0: f234 44be 9cdd e3bc da24 a5bd 602f 133e
000000b0: 5d95 20be 4cf7 2c3e db8b fa3d 6420 b53c
000000c0: 281a 83be 2d0c 493e b52b 5cbd 2061 7a3e
000000d0: b510 093e 961c 6dbe c231 96bd cad2 bcba
000000e0: e1ae 63be f7cd 7a3e e4a5 403d 2fe6 52be
000000f0: a4e6 dfbd 6335 823e ffa6 363f bb2c 38bf
00000100: b4ea aebd a62e 9b3e d0f4 f33d 9a83 96be
00000110: 90fe 88be 5b63 993d 6162 d2bd 904a ee3e
00000120: 7268 913e 8035 3bbb 1c83 a53d c883 773e
00000130: b0a0 423d 10e5 b4bc 587b 69bd 14b6 6c3e
00000140: a0de 1bbe b429 873e 3684 3b3e 602d cdbc
00000150: f8e2 f5bd 6092 e5bc e8ea 743d 24fa 883e
00000160: b834 2f3e 9adf 9fbd aa7f 893e 8a18 49be
00000170: 7fe3 5abe 36dc 86bd bccb 6d3e 90bf 4f3d
00000180: cccd 3b3e 4cc3 95bd 1f76 be3d 8d7e cebe
00000190: 2652 453e e827 bdbc 5850 a2be 43ba 803d
000001a0: 62a1 be3b ce71 63be 7ef7 d53d 5bc3 083e
000001b0: fa83 6dbe 1081 853e 4447 063e 0042 87bc
000001c0: 90e9 4b3d 0b5d 82be b433 5fbe 843d b93d
000001d0: 76e4 d5bd 20f4 0cbd f820 1ebe 16c0 73be
000001e0: 2c8e 583e ea7c 3e3e 5c85 30be ac2e 06be
000001f0: 62af 4fbe 1069 3abd 4ebf 0ebe 32b5 15be
00000200: 2eec 81be 7a6b 14be a004 24bd b5b2 3dbe
00000210: b152 603d 00aa ae3d de2a ef3e dd6d 163e
00000220: b666 52be c2a6 ecbc cadd 73be 1796 fc3d
00000230: f7b4 16bd b671 653c 7ae4 f1be 0bd4 e8be
00000240: 6709 40be 2c0b 1ebe 7254 08be e055 3abd
00000250: 440f c73d 9073 7b3e 0cd6 a7bd 6854 1fbe
00000260: fc1e 733e eef6 1a3e 30b5 273e 5252 90be
00000270: 107a 01bd 92c9 f2bc 58af a5bd 8dbb 66be
00000280: 2c44 463e 4a29 f2bd ab0b 6ebc 7e91 353e
00000290: 4833 663e 687c 6e3e 0f45 8a3b 903d 9abd
000002a0: a42c 9f3d 04a6 72bd 02a6 e9bd 5e92 17be
000002b0: dee5 67be b823 023d a05b 28bd 68ae 7fbe
000002c0: e011 413e d473 053e 6ed5 1f3e c907 3dbe
000002d0: 2913 66be 5849 f83d 90e3 9c3c a87e fe3f
000002e0: a2dd d5bf 3ede 8d3e 3a64 ebbc 2626 86be
000002f0: befc 39be 613f 1ebe e443 b5be 70a9 d5bf
00000300: 2fe3 33bf b4f1 7cbd 3c7d 2f3f 6f03 47bd
00000310: 45f7 74bf dadf 773f 8c38 9f3e 5cc5 a23c
00000320: 1e67 c6ba 9ce0 d3be 51bb 8c3e 569e 233c
00000330: b557 8f3e 3d81 7c3e 2c66 7cbf d495 80bf
00000340: c4e5 34bf 297e c0bf ec68 39be 3c83 8c3f
00000350: 42c0 6abe 0d53 113e 9fe8 37bd 92a3 f33e
00000360: cc0c 57be 04e0 8cbe e745 03be 07bc 0dbd
00000370: f5e3 823e 10d8 b53d 00a8 60be ee11 edbd
00000380: b6be 923e 953f 27bc b5a6 7bbe 4547 8bbe
00000390: 2a7f 0d3e 7518 533d f39a 0fbe cdcf 69be
000003a0: 6957 65be c671 743e c15b ccbd b07b b63e
000003b0: 1b50 5bbe 0dc1 d73d 0f02 90be 497f 8c3e
000003c0: 0613 453e f514 d43b deed c23e 3215 843e
000003d0: f684 173d 321a fcbd 0466 8c3e 76aa 96bd
000003e0: bbfd 733d fb37 59bd 2f0f 8f3d 1831 273e
000003f0: e325 85be 3d65 75bd dff1 8fbd 1308 213e

lstm.bias_ih_l0_reverse f4 [48]
0.27355364 0.098591655 -0.08511523 -0.15223952 -0.20841502 -0.21680836 -0.07414101 -0.12181549
-0.1316137 -0.17969815 -0.17318144 0.08054386 0.2300561 -0.23116109 0.2500863 -0.22805631
0.12042113 0.08882773 -0.2103442 -0.23230553 0.041357957 -0.14532234 -0.10041883 -0.020304766
0.15002644 0.08662003 0.0037146267 0.32768255 -0.09360404 -0.27246037 0.22502363 0.15882063
-0.19528812 -0.104333326 -0.18982026 0.23739547 -0.0007017694 0.014402069 -0.26131165 0.124060415
0.25443584 -0.24479902 0.18579297 -0.006133564 0.025357395 -0.25504115 0.12695973 0.16883348
00000000: 390f 8c3e 6cea c93d e550 aebd ade4 1bbe
00000010: bf6a 55be 0303 5ebe 3ed7 97bd 667a f9bd
00000020: bec5 06be cb02 38be 7a56 31be 2ef4 a43d
00000030: d493 6b3e 7eb5 6cbe 500b 803e 9887 69be
00000040: 5a9f f63d 50eb b53d 7864 57be 80e1 6dbe
00000050: f666 293d 61cf 14be 63a8 cdbd 2e56 a6bc
00000060: 88a0 193e d865 b13d 1871 733b 02c6 a73e
00000070: 7ab3 bfbd ed7f 8bbe 986c 663e e0a1 223e
00000080: 9cf9 47be b6ac d5bd 3e60 42be cc17 733e
00000090: f2f6 37ba a8f6 6b3c a4ca 85be 6313 fe3d
000000a0: 6a45 823e 98ac 7abe 8340 3e3e 10fc c8bb
000000b0: 50ba cf3c c194 82be bb01 023e afe2 2c3e

lstm.bias_hh_l0_reverse f4 [48]
0.09826969 0.23286754 0.17350207 0.19952302 0.1627147 0.029437102 -0.09866764 0.10896534
-0.34305555 0.18092373 -0.18473178 -0.04267587 0.08953047 0.020503573 0.1214363 0.012309235
-0.15319699 0.19288264 0.009571906 -0.32562467 -0.44419158 0.28592363 0.1642956 -0.1234734
0.24663556 -0.04034163 0.22871615 0.3606172 -0.12814657 -0.17038278 -0.03010428 0.19113144
0.101916164 0.018213212 0.11739969 0.046932936 -0.028962485 -0.24363622 0.2707706 0.23277089
-0.25373355 -0.17450686 0.03806838 -0.14046012 -0.030629307 -0.11627638 0.044714652 0.12390981
00000000: 9f41 c93d d474 6e3e 87aa 313e c34f 4c3e
00000010: af9e 263e 1426 f13c 4212 cabd 3829 df3d
00000020: faa4 afbe 1244 393e 542a 3dbe e5cc 2ebd
00000030: c05b b73d 1cf7 a73c 98b3 f83d acac 493c
00000040: acdf 1cbe 0783 453e 7cd3 1c3c 47b8 a6be
00000050: 146d e3be 9564 923e 1b3d 283e 9fdf fcbd
00000060: 088e 7c3e 443d 25bd 9134 6a3e d1a2 b83e
00000070: db38 03be d378 2ebe 409d f6bc f6b7 433e
00000080: 6cb9 d03d e033 953c 406f f03d c03c 403d
00000090: bc42 edbc c67b 79be 72a2 8a3e 7e5b 6e3e
000000a0: 5de9 81be edb1 32be 97ed 1b3d c7d4 0fbe
000000b0: 50ea fabc 5022 eebd b626 373d 6dc4 fd3d

lstm.weight_ih_l1 f4 [48, 24]
-0.085931346 0.1232267 -0.038108792 2.9755995 0.18151042 0.030978626 0.26306918 -0.5369771
0.06887229 0.052201033 0.0971853 -0.1424732 -0.19539642 0.13373098 -1.6129743 0.33041608
-0.3376957 0.4423984 -0.18653984 -0.779358 -0.12869693 -0.11593018 0.03235651 0.0037357595
-0.012540042 -0.22216946 -0.12272698 2.1398368 -0.062247097 0.19197212 -0.2831823 -0.056099165
0.14399906 -0.28300425 -0.02724885 0.026133576 0.053889267 -0.21779755 -0.3962013 -1.1382294
0.14247535 -2.002002 -0.20982228 4.3533115 -0.29922593 -0.122400485 -0.027213618 0.7864993
-0.22401907 0.19399282 -0.067687385 1.2247746 0.2360698 0.092356764 0.23667188 0.72125953
-0.20448452 -0.05365902 -0.20657392 0.0497273 -0.062761076 -0.04350497 -0.52782583 -0.069801554
-0.5720679 0.17025921 0.21155983 2.0529766 -0.26250765 0.040487695 -0.06641452 -0.6570091
0.002124399 0.273439 0.08257896 3.5826273 0.1525344 0.09787538 -0.010301558 -0.2810037
-0.06608728 0.0896315 0.12495063 -0.0036516066 -0.10069958 0.07856465 -0.3861305 -0.2441461
0.23192064 0.45095304 0.2512865 -1.1351545 -0.06874948 -0.12758245 0.19922239 -0.30037796
-0.06431548 -0.19412088 0.21014482 0.4593759 -0.006322533 -0.12685685 -0.16871965 1.2749847
-0.28406227 0.1992296 -0.04232865 0.13164742 -0.22073267 -0.08349985 -0.042928897 -1.0601063
0.012728008 -1.2580043 0.18257867 1.6277264 -0.24176967 0.2261771 0.036324725 2.0034559
-0.21353829 -0.05445014 0.2248535 -0.05220837 0.2741456 -0.14185563 -0.09174107 0.45761564
0.011821687 -0.17661744 -0.031483952 -0.08118 0.23485158 0.1378412 0.10639765 -1.6471721
0.9064255 0.1845632 -0.2046356 2.1695373 0.09907368 0.10881151 -0.23614027 2.460527
0.08029297 -0.22324166 0.23941655 0.2903972 0.25515682 -0.13680544 0.100175455 1.3803195
-0.04522905 -0.08451329 0.057848487 -0.087287165 -0.038930774 -0.06292254 0.2516874 0.29257187
0.87210166 -0.7150529 -0.08386764 1.2752303 0.051581006 0.090488166 0.009358801 1.708476
-0.20923579 -0.2130352 0.12064362 1.5182317 -0.27064124 -0.04197605 0.19403727 -0.41836405
0.2342617 0.23745418 0.13056046 0.090655915 0.1274136 -0.17799874 -0.3596956 -0.35387996
-0.7257237 -1.2144012 0.14341868 2.4476109 -0.13250494 0.27546445 -0.1290162 0.5482774
-0.087227255 -0.12604915 -0.22883858 1.7949411 -0.050621986 -0.009037122 0.17045146 0.5318512
0.2488744 -0.22046581 0.052114513 -0.20377609 -0.19381134 -0.18387446 -1.797953 0.026886255
0.115441635 -0.6887091 -0.23646921 -0.09904956 -0.27763182 -0.22756404 -0.23348397 0.12961465
-0.17138672 -0.084880725 -0.035801332 -0.85483104 0.17611033 -0.19530757 -0.24380448 1.6482882
0.19481094 -0.07157272 -0.052276444 0.14584945 0.21445958 -0.009362012 0.8473471 0.6201434
-0.43569443 -0.21510276 -0.069358855 1.8268954 0.102055736 -0.27923244 -0.26024702 -0.35595605
-0.27242362 -0.23756552 -0.13348843 1.7121259 0.027425766 0.16670343 -0.2100792 0.111841366
-0.05724912 -0.08342086 -0.16618973 -0.16298816 0.14087571 -0.21247134 -1.1669439 0.96517676
00000000: c6fc afbd 485e fc3d f717 1cbd 3970 3e40
00000010: dedd 393e e3c6 fd3c 01b1 863e 5577 09bf
00000020: ea0c 8d3d c0d0 553d 1609 c73d 7fe4 11be
00000030: 0016 48be c6f0 083e f175 cebf 4c2c a93e
00000040: 73e6 acbe 0b82 e23e 4d04 3fbe 0284 47bf
00000050: 21c9 03be cd6c edbd 4388 043d a5d3 743b
00000060: c074 4dbc 6480 63be 4858 fbbd 16f3 0840
00000070: d0f6 7ebd 5794 443e 45fd 90be 3dc8 65bd
00000080: 7d74 133e efe5 90be fb38 dfbc 1516 d63c
00000090: feba 5c3d 5206 5fbe e6da cabe 80b1 91bf
000000a0: 0fe5 113e cd20 00c0 a7db 56be 544e 8b40
000000b0: 2434 99be 1bad fabd 18ef debc 0558 493f
000000c0: 4165 65be 0ea6 463e af9f 8abd 6ac5 9c3f
000000d0: 48bc 713e 8b25 bd3d 1d5a 723e 77a4 383f
000000e0: 6464 51be 90c9 5bbd 1d88 53be daae 4b3d
000000f0: e188 80bd 4432 32bd 981f 07bf 1ef4 8ebd
00000100: 0b73 12bf 6e58 2e3e 24a3 583e f863 0340
00000110: 6767 86be 6dd6 253d 5604 88bd c031 28bf
00000120: 8039 0b3b 3200 8c3e 281f a93d c449 6540
00000130: fa31 1c3e e372 c83d dec7 28bc b8df 8fbe
00000140: c558 87bd b890 b73d 1ee6 ff3d cb4f 6fbb
00000150: 953b cebd 81e6 a03d e6b2 c5be 6f01 7abe
00000160: 9b7c 6d3e 51e3 e63e a0a8 803e be4c 91bf
00000170: 87cc 8cbd f9a4 02be f400 4c3e 24cb 99be
00000180: d6b7 83bd a0c7 46be 3430 573e 5133 eb3e
00000190: 402d cfbb c3e6 01be d8c4 2cbe b332 a33f
000001a0: 9c70 91be d802 4c3e ce60 2dbd 95ce 063e
000001b0: bf07 62be f801 abbd 36d6 2fbd 90b1 87bf
000001c0: 2389 503c 4906 a1bf e7f5 3a3e 5759 d03f
000001d0: 7892 77be f89a 673e 3cc9 143d 9f38 0040
000001e0: c8a9 5abe 1c07 5fbd ff3f 663e 72d8 55bd
000001f0: d05c 8c3e 9a42 11be bee2 bbbd 994c ea3e
00000200: c0af 413c 34db 34be 51f5 00bd b341 a6bd
00000210: ef7c 703e 3e26 0d3e 03e7 d93d 89d6 d2bf
00000220: 800b 683f 23fe 3c3e ff8b 51be b3d9 0a40
00000230: 24e7 ca3d 92d8 de3d c1ce 71be 4679 1d40
00000240: a470 a43d 7699 64be 9d29 753e f1ae 943e
00000250: eaa3 823e ba16 0cbe ca28 cd3d 4fae b03f
00000260: 1942 39bd 4e15 adbd 89f2 6c3d 9dc3 b2bd
00000270: e075 1fbd 88dd 80bd 2cdd 803e fbcb 953e
00000280: 0e42 5f3f b50d 37bf ccc2 abbd bf3a a33f
00000290: 9b46 533d dc51 b93d a855 193c 57af da3f
000002a0: e841 56be e625 5abe 0114 f73d 6b55 c23f
000002b0: 7d91 8abe 14ef 2bbd b5b1 463e d033 d6be
000002c0: 4de2 6f3e 3027 733e a4b1 053e cfa9 b93d
000002d0: b678 023e 4d45 36be 062a b8be c12f b5be
000002e0: 07c9 39bf 8071 9bbf 59dc 123e a8a5 1c40
000002f0: 60af 07be ad09 8d3e d31c 04be e85b 0c3f
00000300: 34a4 b2bd 0713 01be a954 6abe a1c0 e53f
00000310: 0059 4fbd 7010 14bc d48a 2e3e 6627 083f
00000320: eed8 7e3e cac1 61be 0776 553d aeaa 50be
00000330: 7b76 46be 9649 3cbe 5323 e6bf 9040 dc3c
00000340: aa6c ec3d 3d4f 30bf fc24 72be 7fda cabd
00000350: c225 8ebe 8c06 69be 6c16 6fbe b4b9 043e
00000360: 0080 2fbe f2d5 adbd 6ba4 12bd 35d6 5abf
00000370: 4456 343e b5fe 47be e2a7 79be 1cfb d23f
00000380: 857c 473e b894 92bd d31f 56bd 8f59 153e
00000390: 4b9b 5b3e 2063 19bc bdeb 583f b8c1 1e3f
000003a0: 5713 dfbe e643 5cbe 040c 8ebd b5d7 e93f
000003b0: 9902 d13d 8ef7 8ebe 193f 85be df3f b6be
000003c0: 1c7b 8bbe 6044 73be 31b1 08be f126 db3f
000003d0: 00ac e03c 4eb4 2a3e 001f 57be 160d e53d
000003e0: 0e7e 6abd 8ed8 aabd a42d 2abe 5ee6 26be
000003f0: b941 103e 1692 59be 6b5e 95bf d315 773f

lstm.weight_hh_l1 f4 [48, 12]
0.14333272 -0.5993622 0.54593915 1.1598395 0.33335873 0.050590627 -0.25705644 0.22602634
1.5369649 0.9093456 -0.7240838 -0.25591812 0.384348 0.6930572 -1.6432825 0.23700784
0.90511143 0.09943453 -0.8744423 1.1609662 0.6848613 1.5932873 -0.20132084 -1.0910553
1.4107671 1.5007914 1.5904065 0.100745104 1.107082 -0.8654222 1.750675 1.5638921
0.8116504 -0.40934005 0.79851353 1.005575 0.2606733 0.6388321 -0.83962965 -0.44779512
0.91546655 0.70465565 1.8146012 1.4880085 -0.06386972 0.278442 1.1110094 0.8368326
-0.06289725 -1.6468756 -1.6270303 -0.0915315 -1.7261827 -0.6678653 -1.7028368 -0.50106704
-0.07981692 -0.23600128 0.04472729 -1.501933 1.0682014 -0.1337919 1.298895 0.5152273
0.9589251 -0.27012774 -1.0851749 0.019836947 1.1810614 2.5494716 0.45775384 -0.70675874
0.04886314 -0.8212983 0.87619036 1.6299516 -0.580407 -0.62241936 -0.6647859 -0.8468421
1.5338678 0.6801543 -1.7522912 -1.2318023 0.9093735 4.2930493 -0.78073156 -1.5032659
-0.33419305 -0.19966306 -0.64907664 -0.8345057 0.008547766 4.3020663 0.17755085 0.35402146
1.3350277 0.74037737 -0.5768606 -0.24314293 -0.0652612 -0.4901047 1.3221866 0.3085779
0.5484563 -0.21843384 1.6595407 0.7860179 1.2795453 1.0446453 -0.8357045 0.9495007
0.686053 0.42405975 0.18335602 0.24539962 0.5575325 0.5565623 0.6095972 1.3397304
0.49421507 0.7988774 0.5967191 0.36566147 -0.3025186 -0.9908097 -0.18739147 1.6099567
1.1792471 1.4575584 0.63096637 0.027054401 0.36080796 -0.22621945 0.013503275 -0.7104845
0.27067655 0.43479806 -0.020808375 -0.8637494 0.7371812 0.53717494 -0.156669 0.5553199
-0.62384146 0.9628383 1.1582768 0.8363918 0.56355804 0.1360462 1.851399 0.60219437
-1.2790002 -0.024868835 -0.16887802 1.6882384 -0.33437124 -0.02994357 -1.0200492 0.16796358
-0.8028532 -1.9069846 0.013771285 -0.03926404 -0.66386414 -0.52929187 0.90497094 -0.7138654
0.6831713 2.8902483 -0.07687185 0.38848272 2.675106 -0.24706282 0.3201094 0.32860795
0.74494773 -2.699094 -0.6922793 0.871198 0.37865555 0.22785878 -0.47358498 0.40226722
1.0194812 0.6667047 2.1711352 -0.30160022 0.35682788 0.587221 0.4588911 1.6852279
0.27506736 -1.0577756 -0.062564835 0.004825301 -0.72856754 -0.076900326 -0.5178487 -0.44532472
-0.89044166 0.3900117 0.23374483 -0.9126054 -1.3182187 0.47514904 -1.9520124 -1.4789137
-1.8240759 1.3155694 -0.58336043 -1.1342006 -1.472603 -0.8317343 0.39038998 0.3098012
-0.94574183 -0.092343755 -0.5536062 -0.18887709 -0.51835626 0.0927843 -1.0390192 0.014208158
-0.6078211 0.3049785 -0.13364604 -0.30187392 -1.6377279 -0.24379914 -0.8967172 -1.3308426
-1.2452657 1.2619727 -0.35950938 -1.5402532 -2.3107061 -1.1581502 -0.76669306 0.33313322
1.3807807 0.6320663 -0.5875029 0.18242185 0.7279811 -0.75611776 1.4987651 -0.9113299
0.77686554 -0.1375992 1.2415488 1.308039 0.44965014 0.76991844 -1.7272705 -0.8734269
00000000: d0c5 123e cd6f 19bf abc2 0b3f 9f75 943f
00000010: ffad aa3e 1e38 4f3d e79c 83be 7373 673e
00000020: 44bb c43f e0ca 683f 8e5d 39bf b307 83be
00000030: 43c9 c43e 326c 313f 1557 d2bf 2fb2 723e
00000040: 62b5 673f 55a4 cb3d 73db 5fbf 8a9a 943f
00000050: 1253 2f3f d7f0 cb3f 0d27 4ebe b3a7 8bbf
00000060: 0494 b43f ef19 c03f 7192 cb3f 7353 ce3d
00000070: ddb4 8d3f 4f8c 5dbf 1e16 e03f 9e2d c83f
00000080: 52c8 4f3f 0595 d1be 626b 4c3f aeb6 803f
00000090: f976 853e 808a 233f f8f1 56bf 6745 e5be
000000a0: 045c 6a3f 5064 343f da44 e83f 1077 be3f
000000b0: 21ce 82bd f38f 8e3e 8e35 8e3f a93a 563f
000000c0: 46d0 80bd d2cc d2bf 8742 d0bf de74 bbbd
000000d0: 8ef3 dcbf 38f9 2abf 8ef6 d9bf ee45 00bf
000000e0: 0e77 a3bd 52aa 71be f633 373d 573f c0bf
000000f0: d3ba 883f be00 09be 3142 a63f f0e5 033f
00000100: 1e7c 753f 2f4e 8abe 03e7 8abf 1881 a23c
00000110: 052d 973f 8b2a 2340 b65e ea3e 24ee 34bf
00000120: b724 483d 9b40 52bf 034e 603f 41a2 d03f
00000130: 8e95 14bf e056 1fbf 692f 2abf a5ca 58bf
00000140: c855 c43f 981e 2e3f 144b e0bf b3ab 9dbf
00000150: b4cc 683f a960 8940 06de 47bf 046b c0bf
00000160: 5a1b abbe 7974 4cbe e329 26bf 2aa2 55bf
00000170: ee0b 0c3c 87aa 8940 e4cf 353e 4d42 b53e
00000180: 30e2 aa3f 5f89 3d3f 23ad 13bf 76fa 78be
00000190: aaa7 85bd 01ef fabe 693d a93f ecfd 9d3e
000001a0: a267 0c3f 1fad 5fbe d46b d43f 7838 493f
000001b0: 24c8 a33f f0b6 853f bbf0 55bf 7a12 733f
000001c0: 2ba1 2f3f 5c1e d93e aec1 3b3e 0a4a 7b3e
000001d0: 73ba 0e3f de7a 0e3f 900e 1c3f 497c ab3f
000001e0: c209 fd3e 3b83 4c3f 95c2 183f fb37 bb3e
000001f0: b8e3 9abe b4a5 7dbf 8de3 3fbe 1013 ce3f
00000200: 92f1 963f 4691 ba3f 0387 213f 31a1 dd3c
00000210: d2bb b83e 12a6 67be d73c 5d3c 50e2 35bf
00000220: 1e96 8a3e da9d de3e 5376 aabc ae1e 5dbf
00000230: e8b7 3c3f 4c84 093f d76d 20be 7229 0e3f
00000240: 13b4 1fbf 927c 763f 6a42 943f c61d 563f
00000250: 5745 103f b24f 0b3e a4fa ec3f 6929 1a3f
00000260: 47b6 a3bf bab9 cbbc 5cee 2cbe 3218 d83f
00000270: b532 abbe 384c f5bc f990 82bf a5fe 2b3e
00000280: ca87 4dbf 1218 f4bf f5a0 613c 54d3 20bd
00000290: 00f3 29bf ac7f 07bf 2dac 673f e2bf 36bf
000002a0: 50e4 2e3f d4f9 3840 fd6e 9dbd 35e7 c63e
000002b0: f034 2b40 09fe 7cbe 61e5 a33e 4d3f a83e
000002c0: e5b4 3e3f f5bd 2cc0 3739 31bf d506 5f3f
000002d0: 24df c13e d053 693e bb79 f2be f8f5 cd3e
000002e0: 5c7e 823f 29ad 2a3f e1f3 0a40 586b 9abe
000002f0: 25b2 b63e 1e54 163f c6f3 ea3e 8cb5 d73f
00000300: a1d5 8c3e 3165 87bf fe21 80bd 8f1d 9e3b
00000310: 6783 3abf eb7d 9dbd bb91 04bf 9a01 e4be
00000320: fcf3 63bf 9daf c73e ce5a 6f3e 82a0 69bf
00000330: 64bb a8bf bc46 f33e 8bdb f9bf 0b4d bdbf
00000340: 527b e9bf 9464 a83f 1c57 15bf 7c2d 91bf
00000350: 417e bcbf 8aec 54bf 32e1 c73e 439e 9e3e
00000360: 231c 72bf b91e bdbd 23b9 0dbf ff68 41be
00000370: ffb2 04bf b205 be3d 95fe 84bf 55c9 683c
00000380: 2a9a 1bbf 2426 9c3e 82da 08be 388f 9abe
00000390: 11a1 d1bf 7ba6 79be 428f 65bf 0d59 aabf
000003a0: de64 9fbf 5288 a13f 9d11 b8be 0427 c5bf
000003b0: 9ce2 13c0 443e 94bf ff45 44bf 7090 aa3e
000003c0: 6cbd b03f 19cf 213f 9766 16bf cbcc 3a3e
000003d0: f85c 3a3f ef90 41bf 89d7 bf3f eb4c 69bf
000003e0: a9e0 463f cee6 0cbe 12eb 9e3f d26d a73f
000003f0: 8b38 e63e 6019 453f 3317 ddbf e898 5fbf

lstm.bias_ih_l1 f4 [48]
0.068013065 0.71793014 0.5314601 0.13648684 -0.13401924 -0.6116092 -0.33693415 0.7250583
0.29095447 0.01573023 1.1017632 0.7706658 0.39506587 0.004223218 0.22428265 0.5691776
-1.1308167 -0.6301568 -1.9883903 -0.40213832 0.60207224 0.044599373 -0.5188712 -0.3524308
0.10985742 -0.052553043 -0.061804213 -0.3519426 0.0080735115 -0.4515668 -0.011947901 -0.028193694
0.6656674 -0.10337364 -0.06347951 0.4508652 -0.2944186 0.3379387 -0.11961721 -0.5082858
0.4797592 -0.67972416 0.73393893 1.2746093 -1.106624 -0.027179986 1.2000475 0.10497883
00000000: 6f4a 8b3d 45ca 373f c50d 083f 35c3 0b3e
00000010: 573c 09be 6c92 1cbf a282 acbe 6c9d 393f
00000020: fcf7 943e afdc 803c 9406 8d3f 5b4a 453f
00000030: 1346 ca3e ec62 8a3b 5aaa 653e a0b5 113f
00000040: 9abe 90bf f551 21bf 9383 febf 13e5 cdbe
00000050: 6821 1a3f d5ad 363d bed4 04bf cf71 b4be
00000060: edfc e03d dc41 57bd 6a26 7dbd d231 b4be
00000070: c346 043c c333 e7be 21c1 43bc 76f6 e6bc
00000080: 2e69 2a3f 8fb5 d3bd 8c01 82bd ced7 e63e
00000090: 09be 96be 4d06 ad3e def9 f4bd 051f 02bf
000000a0: ffa2 f53e 6702 2ebf 6ce3 3b3f 6626 a33f
000000b0: dba5 8dbf 90a8 debc 289b 993f 24ff d63d

lstm.bias_hh_l1 f4 [48]
0.16101536 0.7503266 0.6986191 0.5170066 0.11750967 -0.84764606 -0.5916092 1.0537525
0.4742586 0.22372852 1.3308243 0.82297 -0.10302049 -0.19839351 0.5895689 1.0049855
-1.1682887 -0.3924194 -2.2334769 -0.5321785 0.40401703 0.30814385 -0.86753565 -0.5039793
-0.28428495 0.28501797 -0.07890138 -0.16527559 0.3551503 -0.860416 0.24008225 -0.057651896
0.8055858 0.24154311 0.3314648 0.68740666 -0.33060524 -0.09388497 -0.4084606 -0.9171119
0.30204904 -0.32411283 0.5189787 0.97172993 -1.0211201 0.019121025 1.1349545 0.6277528
00000000: 36e1 243e 6715 403f b4d8 323f 8b5a 043f
00000010: e9a8 f03d 55ff 58bf b373 17bf 5de1 863f
00000020: 06d2 f23e 1719 653e 7358 aa3f 29ae 523f
00000030: 68fc d2bd ab27 4bbe fded 163f 5da3 803f
00000040: 7c8a 95bf 32eb c8be 49f1 0ec0 da3c 08bf
00000050: 52db ce3e 08c5 9d3e d116 5ebf ca04 01bf
00000060: cc8d 91be e0ed 913e 0c97 a1bd 013e 29be
00000070: 43d6 b53e 3944 5cbf 1fd8 753e 6524 6cbd
00000080: df3a 4e3f 1457 773e c1b5 a93e e2f9 2f3f
00000090: 1745 a9be c346 c0bd bf21 d1be d8c7 6abf
000000a0: 2ca6 9a3e 1ef2 a5be cadb 043f 4bc3 783f
000000b0: 10b4 82bf b2a3 9c3c 3046 913f 68b4 203f

lstm.weight_ih_l1_reverse f4 [48, 24]
0.15565464 0.1637018 -0.010964928 -0.61923414 0.27907366 0.19638088 0.11008657 0.8223218
-0.13047582 -0.083433 -0.14658937 -0.2232947 -0.19071044 0.1331608 0.33949256 -0.16793166
0.7270427 -0.18147986 0.15309915 0.8452172 0.12076194 0.15005085 0.059064213 0.29798034
-0.039416373 -0.2504462 0.061590616 -0.6090078 -0.20986992 -0.13924487 -0.09141731 -0.81916785
-0.295202 0.22388726 -0.1520188 -0.16022442 -0.26481763 0.12258791 0.30658802 -0.518528
0.35053682 0.4227636 -0.18849011 -0.17328794 -0.25978324 -0.15638597 0.06144546 -1.1315236
-0.08419064 -0.22224069 -0.063426025 2.7440648 0.22837108 -0.1807025 -0.17367941 0.25429276
-0.028062826 0.06435388 -0.2698253 -0.0043742443 0.25063592 0.13869195 -0.5779915 -1.4629469
1.2694273 -1.753843 0.095196776 0.85249215 0.06059439 0.2513441 0.24343008 -0.08147348
-0.0006121695 0.28519088 -0.2698881 1.3691453 0.23665392 0.2596256 0.07824183 0.018278118
-0.030425332 0.10623035 0.23911968 -0.14093305 0.16132495 -0.034392484 -1.9088919 0.19441149
-1.095916 -2.7888298 0.09685301 1.0186021 -0.19544655 0.18170545 -0.024861567 -1.0997039
-0.20678967 -0.0042141974 0.2095082 1.4630612 0.085098445 -0.08156736 0.027079714 -1.4733293
0.06005185 -0.13352849 -0.18480256 0.009632905 0.11989399 0.18367386 0.047035947 -0.61204684
1.3792745 -0.97362685 -0.12888503 -1.4402527 0.24475425 0.05768004 -0.030824782 0.08238174
-0.1516311 -0.07687448 0.22820158 -1.802649 0.15796545 0.08956061 -0.19035275 -0.9049261
0.10522885 -0.021780968 0.8084173 0.0637725 0.26417547 0.0530959 0.117623515 0.28025714
-0.45774823 0.063085765 0.19302365 -1.0240344 -0.20438018 0.23857762 -0.089431114 -1.3148571
0.13554615 -0.1074218 -0.21942273 1.293579 -0.008872688 0.27287906 -0.20218526 -0.053616464
-0.01457042 0.12595937 -0.14615904 0.027981695 -0.017544745 -0.03827782 -0.95476043 -0.21442771
-0.37623146 -1.7835402 0.07428045 0.76213574 -0.06790027 0.11439187 -0.11559811 1.1117035
0.2638579 0.101529926 -0.0791792 2.4176164 0.0404166 0.2712899 -0.16244705 1.1148187
0.13530725 0.25469518 -0.0881108 0.018051246 0.21403475 0.088508606 -0.2934392 -0.82801265
-0.3524478 -2.3407526 0.11907153 2.0528276 0.05445187 0.07526726 -0.19386843 1.656901
-0.20508686 -0.016215354 -0.008535378 -0.63354975 -0.2601956 0.041899405 -0.019162497 1.7804993
-0.26466402 -0.13766383 -0.045870364 0.26764342 -0.026410973 -0.08669256 0.28771853 -0.3529743
0.3712403 -0.16520573 -0.14745277 2.6120005 -0.23882887 -0.1965251 -0.02982434 2.186513
0.0026541948 -0.081857175 -0.23623028 1.0545286 -0.20362434 0.115475945 0.1496578 -0.18475024
0.05875942 -0.16784942 -0.15607464 0.13454545 0.17511983 -0.07259236 -0.6486664 -1.0606154
-0.46694845 -1.2559286 0.14152285 -0.45237824 -0.18039593 -0.0458424 0.16054738 -0.59576136
0.21307904 0.15561447 0.02061819 -0.35811484 0.23912102 0.103516765 -0.19865559 2.9228098
0.28144082 0.017718136 0.34346047 0.2101101 0.116298564 -0.015802953 -1.0450531 -0.49379066
00000000: ee63 1f3e 72a1 273e 3ea6 33bc 2186 1ebf
00000010: bee2 8e3e 1218 493e 1175 e13d ae83 523f
00000020: 749b 05be ecde aabd 861b 16be 5ea7 64be
00000030: 9949 43be 4e5b 083e f8d1 ad3e 47f6 2bbe
00000040: 781f 3a3f dbd5 39be 06c6 1c3e 2860 583f
00000050: 0952 f73d eea6 193e 51ed 713d e190 983e
00000060: 1073 21bd 7c3a 80be 7146 7c3d efe7 1bbf
00000070: 24e8 56be 3596 0ebe 0039 bbbd fcb4 51bf
00000080: b724 97be b442 653e d1aa 1bbe df11 24be
00000090: 2d96 87be 5f0f fb3d 1bf9 9c3e 40be 04bf
000000a0: 9079 b33e 7874 d83e 8d03 41be 6572 31be
000000b0: 4f02 85be a523 20be 3cae 7b3d c4d5 90bf
000000c0: 246c acbd 1093 63be 81e5 81bd c29e 2f40
000000d0: 1cda 693e 130a 39be 04d9 31be a932 823e
000000e0: 03e4 e5bc f8cb 833d 8b26 8abe d255 8fbb
000000f0: 5a53 803e 4305 0e3e 40f7 13bf d841 bbbf
00000100: 987c a23f ed7d e0bf 87f6 c23d ed3c 5a3f
00000110: d331 783d 2db0 803e bc45 793e 91db a6bd
00000120: 007a 20ba 8a04 923e c62e 8abe 2740 af3f
00000130: 6855 723e a6ed 843e 413d a03d febb 953c
00000140: 8c3e f9bc 4c8f d93d cadb 743e c150 10be
00000150: 5e32 253e 22df 0cbd 9256 f4bf ce13 473e
00000160: fa46 8cbf 307c 32c0 df5a c63d 8e61 823f
00000170: 2423 48be fe10 3a3e 7caa cbbc 19c3 8cbf
00000180: acc0 53be 4017 8abb 5189 563e 9745 bb3f
00000190: 1848 ae3d ca0c a7bd 47d6 dd3c 0e96 bcbf
000001a0: eef8 753d b1bb 08be e23c 3dbe 55d3 1d3c
000001b0: fb8a f53d 0015 3c3e c4a8 403d 1aaf 1cbf
000001c0: 118c b03f 9c3f 79bf 70fa 03be 335a b8bf
000001d0: dca0 7a3e e841 6c3d 4184 fcbc c2b7 a83d
000001e0: 2f45 1bbe 5e70 9dbd adad 693e 34bd e6bf
000001f0: b2c1 213e 8e6b b73d d5eb 42be 3da9 67bf
00000200: 3982 d73d 006e b2bc 70f4 4e3f 289b 823d
00000210: 0242 873e 167b 593d 99e4 f03d dd7d 8f3e
00000220: fa5d eabe 1c33 813d fea7 453e 8f13 83bf
00000230: 0a49 51be b14d 743e a927 b7bd 3d4d a8bf
00000240: 9ccc 0a3e f6ff dbbd 5ab0 60be ff93 a53f
00000250: c05e 11bc ceb6 8b3e a709 4fbe f09c 5bbd
00000260: c5b8 6ebc 7efb 003e b7aa 15be de39 e53c
00000270: ffb9 8fbc 34c9 1cbd 2e6b 74bf f092 5bbe
00000280: 69a1 c0be 0c4b e4bf 5920 983d 541b 433f
00000290: 4c0f 8bbd 4946 ea3d b4be ecbd 4d4c 8e3f
000002a0: 6218 873e ecee cf3d b428 a2bd 3aba 1a40
000002b0: e08b 253d 83e6 8a3e 8558 26be 61b2 8e3f
000002c0: fc8d 0a3e 6867 823e 6f73 b4bd 35e0 933c
000002d0: ed2b 5b3e 0044 b53d aa3d 96be a3f8 53bf
000002e0: 0a74 b4be e4ce 15c0 c6db f33d 8761 0340
000002f0: ed08 5f3d b925 9a3d 7285 46be 5515 d43f
00000300: 4a02 52be 10d6 84bc f8d7 0bbc 5130 22bf
00000310: 5c38 85be b69e 2b3d abfa 9cbc 67e7 e33f
00000320: 0b82 87be bff7 0cbe 90e2 3bbd 8f08 893e
00000330: d35b d8bc de8b b1bd d84f 933e 0cb9 b4be
00000340: 3513 be3e b12b 29be dcfd 16be 042b 2740
00000350: 8e8f 74be e03d 49be 2d52 f4bc d4ef 0b40
00000360: 00f2 2d3b bca4 a7bd 5ae6 71be cbfa 863f
00000370: e682 50be a77e ec3d e53f 193e 2b2f 3dbe
00000380: b8ad 703d b8e0 2bbe 08d2 1fbe 48c6 093e
00000390: 9d52 333e 4eab 94bd 000f 26bf 3fc2 87bf
000003a0: de13 efbe 45c2 a0bf 5eeb 103e 1f9e e7be
000003b0: b6b9 38be 3ec5 3bbd 8866 243e d183 18bf
000003c0: 6431 5a3e 6659 1f3e 7ae7 a83c d45a b7be
000003d0: 24dc 743e 9900 d43d 5f6c 4bbe 510f 3b40
000003e0: 0319 903e a025 913c 0dda af3e 1a27 573e
000003f0: f12d ee3d 3275 81bc 4dc4 85bf 21d2 fcbe
