checkpoint/checkpoint.pt (torch, 155283 bytes, 21 tensors)

lstm.weight_ih_l0 f4 [128, 6]
-0.62826616 -0.16335978 -1.1905617 0.009845889 -0.13505268 0.65334195 0.3754072 0.2382048
0.84609425 0.72464746 -0.6122389 1.1466963 -0.15469085 -0.20116521 -0.4626774 0.015551556
-0.17354003 -0.3837184 -0.09675181 -0.14868774 0.2880029 0.08536455 -0.28443363 0.3196472
0.3006118 0.23514119 -0.041345976 -0.041191984 -0.45034993 -0.26173082 0.0009983095 0.33635774
-0.19950587 0.6063787 -0.35179397 3.431588 0.56000304 -0.5665794 -0.060757317 0.5716395
1.1656936 2.1264718 0.7224754 0.53386015 0.5864448 0.5526621 -0.33309066 0.19572283
1.4838247 -0.04056692 0.274289 0.21465863 -0.15663667 -0.31446263 0.78066343 0.83178306
-0.26833525 0.27369195 0.25126472 0.045960918 1.6453282 0.4617364 0.1441692 1.4994514
0.36897293 -0.2942287 0.40843284 0.2061876 -0.3900218 1.2985353 -0.43770415 1.6218611
0.16885608 -0.68595165 -0.15354653 -0.25910133 -0.08333856 -0.075672574 0.92541325 1.2039055
2.0865092 1.1989182 0.5248353 0.4048231 0.77221733 -0.758985 0.8332282 -0.011584708
-0.42044818 0.25208887 0.33143592 0.45631242 -0.18414964 -0.33461305 -1.0503527 -0.20998244
-1.181874 -0.4744293 0.03467546 -0.2947858 -0.009338834 0.40161905 0.09276348 0.29275036
-0.13582219 0.2604328 0.63280827 -0.34490263 0.7208595 0.042436127 -0.18929122 -0.076474115
1.1002166 -0.433643 0.19807842 0.12000773 0.46685845 -0.108942226 0.3206474 -0.22705886
-0.78657436 0.04544441 -0.053780545 0.2659476 0.5790828 1.101633 1.0586104 0.50159127
0.3364555 1.2410789 1.3809679 -0.0985261 1.0314466 0.20197856 -0.030198306 0.13850619
-0.14183635 -0.5337924 -0.47791392 0.38052318 -0.6221586 0.42748454 0.26683694 -0.23680228
-0.09738975 -0.29014033 0.09625076 -0.2725579 0.1936902 0.8716296 0.64784783 0.66615045
-0.23969729 -0.34948245 0.43278965 -0.27623522 0.98124033 0.32098043 0.45139894 -0.35447899
-0.21716556 0.572534 -0.7393929 0.682685 0.6322746 -0.35934964 0.046812072 0.25477564
-0.11755426 -0.41728145 -0.90830594 -0.08464003 -0.027658576 0.8183902 0.18385236 -0.037231654
0.051289286 -0.21726827 -0.13298559 -0.28989455 -0.36212075 -0.14196175 0.27479777 0.35821295
0.15404694 -0.19105199 0.36671224 -0.029213091 -0.46220696 0.34417307 -0.41800964 0.027892265
-0.58091486 -0.06355675 -0.21273409 -0.58403885 -0.39226326 -0.822275 -0.81287557 0.46855873
-1.0142161 -1.2978495 -0.8792086 -1.2404677 -0.28309515 0.06416369 -0.5140062 -0.45689893
0.45143017 -0.1320082 0.05347584 -0.16330872 -0.15509929 -0.3277396 -0.1675516 0.16175096
0.14761062 0.15736865 -0.02177664 0.10156922 0.117369026 -0.7575387 -0.4831759 -0.0692183
-0.06670268 -0.056241516 0.19952881 0.09192459 -0.77991617 -0.39552695 0.08944374 -0.020909159
0.18195349 -0.39722714 -0.013487655 -0.19363564 -0.32469362 0.009176925 0.08292349 -0.21841718
-0.17677452 -0.38230017 -0.33841276 0.27765316 0.060190417 -0.71557766 0.5807929 -0.26675022
-0.046256766 -0.09676822 -0.29418042 0.25534827 -0.14232086 0.0975665 -0.08414479 -0.011172932
00000000: 0dd6 20bf c947 27be 5364 98bf a750 213c
00000010: 404b 0abe 6b41 273f 5f35 c03e f6eb 733e
00000020: a299 583f 7f82 393f b0bb 1cbf f2c6 923f
00000030: 4767 1ebe 41fe 4dbe 0de4 ecbe f4cb 7e3c
00000040: 7ab4 31be bd76 c4be d025 c6bd 9941 18be
00000050: 1e75 933e 9cd3 ae3d 49a1 91be cca8 a33e
00000060: cae9 993e dac8 703e 665a 29bd edb8 28bd
00000070: 4494 e6be 9501 86be b5d9 823a 1537 ac3e
00000080: 444b 4cbe a23b 1b3f 571e b4be 239f 5b40
00000090: 5c5c 0f3f 590b 11bf aadc 78bd f756 123f
000000a0: 7335 953f 1d18 0840 26f4 383f 0fab 083f
000000b0: 3f21 163f 437b 0d3f dc8a aabe 916b 483e
000000c0: f8ed bd3f 8029 26bd 9c6f 8c3e 79cf 5b3e
000000d0: 5d65 20be 3f01 a1be 8fd9 473f bcef 543f
000000e0: 3d63 89be 5a21 8c3e c5a5 803e 8441 3c3d
000000f0: 1d9a d23f b768 ec3e 17a1 133e 06ee bf3f
00000100: 05ea bc3e 25a5 96be 1c1e d13e d822 533e
00000110: f0b0 c7be 6836 a63f c21a e0be 2599 cf3f
00000120: 9ce8 2c3e 879a 2fbf 4d3b 1dbe eea8 84be
00000130: 68ad aabd 39fa 9abd e2e7 6c3f 9319 9a3f
00000140: 5e89 0540 2776 993f 9b5b 063f f944 cf3e
00000150: 09b0 453f d74c 42bf 714e 553f c9cd 3dbc
00000160: fc44 d7be cb11 813e f8b1 a93e c8a1 e93e
00000170: b991 3cbe 6752 abbe f571 86bf a305 57be
00000180: a647 97bf 66e8 f2be db07 0e3d 2aee 96be
00000190: e901 19bc 03a1 cd3e c8fa bd3d 60e3 953e
000001a0: f914 0bbe 7357 853e b9ff 213f 1497 b0be
000001b0: 408a 383f 81d1 2d3d 8fd5 41be 769e 9cbd
000001c0: e6d3 8c3f 7506 debe 12d5 4a3e 9dc6 f53d
000001d0: 1208 ef3e 1a1d dfbd e52b a43e 1e82 68be
000001e0: f05c 49bf eb23 3a3d fd48 5cbd 492a 883e
000001f0: c53e 143f 4f02 8d3f 8c80 873f 4968 003f
00000200: e543 ac3e acdb 9e3f 8ec3 b03f 0dc8 c9bd
00000210: 7106 843f 78d3 4e3e 7062 f7bc 91d4 0d3e
00000220: 8c3d 11be 9ea6 08bf 22b1 f4be efd3 c23e
00000230: c945 1fbf 41df da3e da9e 883e 4c7c 72be
00000240: 4774 c7bd 468d 94be 1e1f c53d b68c 8bbe
00000250: b956 463e 1e23 5f3f 5bd9 253f d688 2a3f
00000260: 3573 75be 5def b2be 9b96 dd3e b46e 8dbe
00000270: 9132 7b3f 8c57 a43e c31d e73e 457e b5be
00000280: a660 5ebe 9791 123f da48 3dbf 72c4 2e3f
00000290: c0dc 213f adfc b7be 04be 3f3d f471 823e
000002a0: 4ac0 f0bd eaa5 d5be bd86 68bf c157 adbd
000002b0: 3d94 e2bc 0582 513f cb43 3c3e 3880 18bd
000002c0: b714 523d 937b 5ebe 602d 08be 0f6d 94be
000002d0: e467 b9be 6c5e 11be 4bb2 8c3e b067 b73e
000002e0: 7bbe 1d3e 22a3 43be b5c1 bb3e 4b50 efbc
000002f0: 64a6 ecbe 7437 b03e 5c05 d6be 527e e43c
00000300: d6b6 14bf 0b2a 82bd f7d6 59be 9283 15bf
00000310: bbd6 c8be 9d80 52bf 9d18 50bf eee6 ef3e
00000320: d5d1 81bf ef1f a6bf d113 61bf a5c7 9ebf
00000330: d9f1 90be 4168 833d e995 03bf a8ee e9be
00000340: db21 e73e 282d 07be 7b09 5b3d 673a 27be
00000350: 59d2 1ebe 7ccd a7be a692 2bbe 0ba2 253e
00000360: 3d27 173e 3f25 213e ed64 b2bc 8603 d03d
00000370: 2c5f f03d 0eee 41bf d562 f7be 53c2 8dbd
00000380: 6a9b 88bd 815d 66bd 4851 4c3e f642 bc3d
00000390: 96a8 47bf 8282 cabe 482e b73d af49 abbc
000003a0: 0452 3a3e 5b61 cbbe 53fb 5cbc 6c48 46be
000003b0: 3e3e a6be d05a 163c cad3 a93d c1a8 5fbe
000003c0: 6104 35be d9bc c3be 7044 adbe 8e28 8e3e
000003d0: 3a8a 763d 1930 37bf d8ae 143f 7c93 88be
000003e0: bc77 3dbd 6b2e c6bd d19e 96be 02bd 823e
000003f0: 8fbc 11be f2d0 c73d 1b54 acbd ac0e 37bc

lstm.weight_hh_l0 f4 [128, 32]
1.0580835 -0.16326088 0.41241255 0.24797101 -0.058059897 -0.5260964 -0.097593434 -0.05739497
-1.3799891 0.70254576 0.37220937 0.30157533 0.5366697 -0.032694347 -0.9882939 0.3731792
-0.94507974 -0.64795613 -0.5948584 0.31739208 -0.3076549 0.57163125 -0.56723624 0.17554557
-1.2683223 0.4303436 -1.4705414 -0.1588326 0.36479038 -0.11801409 0.048712526 0.33035415
0.056356806 0.17749032 0.31937528 0.042427044 0.11919658 0.009474445 0.38950878 0.5232085
0.49018368 0.73512876 -0.42983463 0.07439892 0.33575383 0.09240462 -0.10122893 -0.058407858
-0.58271366 -0.061437074 -0.23214014 0.23164968 -0.71992904 0.3933197 -0.9674811 -0.1652493
0.9635082 0.63108313 -0.35164872 0.2012735 -0.49307337 -0.0104574235 0.2915999 0.32982326
0.693576 -0.749865 -0.29761004 0.12829514 -0.9201831 -0.2792546 -0.8675055 -1.1440709
-0.248371 -0.22423328 0.5824034 0.19361046 0.9220917 1.05895 -0.61478037 0.43801
-1.4840496 -0.14238289 -1.5452219 0.17720261 -1.8010229 0.49480265 -0.7826491 -0.0009248649
1.4395025 1.2726147 -1.3146158 -0.7970282 1.6726526 0.9919478 0.028819779 1.0704
-0.004668313 0.07886875 -1.665723 -0.51110375 -0.68655556 -0.35203886 0.9119179 0.10392577
1.8894272 -0.9464481 -1.5786788 0.79740053 0.45813125 -1.0203501 1.0760624 -0.29141057
-0.37816846 1.7544214 -0.5019545 0.08855696 -0.10681506 -3.038629 -0.051624667 0.57262826
-1.755913 -0.06319733 1.0006944 -0.80063915 -0.018503735 0.9592619 0.37070644 1.2020965
0.30057207 -1.1601726 0.081507854 0.4119681 -0.5699111 -0.018299911 -0.19873026 -1.5457938
-0.15990646 0.19689523 1.2776109 0.71003604 0.10456639 1.1335186 0.41611603 -0.8600116
-0.67642206 0.9726179 -1.1249311 1.0118132 0.47542974 0.0429366 0.020529477 0.59303665
-1.0527178 0.76545626 -1.0027754 -1.1057113 0.5525803 0.50154257 0.7100638 0.0018594014
-0.05935217 0.35034615 -0.35065478 -0.87806416 0.1765885 0.67690474 -0.73622805 0.2123523
0.40571442 -1.1381401 -0.23794809 0.43115732 0.051730793 -0.23408471 0.47173208 0.09518719
-0.055433735 0.89624935 -0.6559004 0.044774495 0.10772371 -0.24752006 -0.11181301 -0.32744253
-0.13993382 -0.5621148 0.5369738 0.45330188 0.37346008 -0.57612795 0.76768833 0.31472737
0.62133396 0.03976464 -0.97972476 -0.64283967 -0.1695153 1.3388677 -0.6772916 -0.026124353
1.5431603 -1.612848 -0.23926742 1.1508853 -0.77010286 0.37301683 -0.565976 -0.72158265
-0.78504145 2.0417266 0.18111247 -0.6029342 0.484561 -0.548035 0.5522895 0.2969836
0.058019456 -0.47969025 1.8234187 -0.325264 -0.28619328 -0.024516392 1.4816546 1.0952543
0.029588453 0.2598915 -0.13496108 0.22013791 -0.6278984 -0.43985018 -0.09424165 0.09816999
0.19717205 0.17841914 0.06290707 0.28751513 0.24621858 -0.90833414 0.3513941 -0.22503373
-0.41552085 0.45921206 -0.19982809 0.25574562 0.14920253 -0.43445143 0.39775506 0.034863606
-0.71613854 0.62569684 0.033948272 -0.32770965 0.49195424 0.66558564 0.6823184 0.65170413
00000000: 486f 873f dc2d 27be bd27 d33e 1dec 7d3e
00000010: 37d0 6dbd 41ae 06bf 11df c7bd fd16 6bbd
00000020: 7ca3 b0bf 0ada 333f 3a92 be3e 1568 9a3e
00000030: 2f63 093f 82ea 05bd d400 7dbf 5811 bf3e
00000040: bff0 71bf 74e0 25bf a448 18bf 3781 a23e
00000050: f184 9dbe 6d56 123f 6536 11bf 38c2 333e
00000060: 6358 a2bf ff55 dc3e b33a bcbf 03a5 22be
00000070: cec5 ba3e 5fb1 f1bd c986 473d 2e24 a93e
00000080: 65d6 663d 06c0 353e 2885 a33e fbc7 2d3d
00000090: 561d f43d b43a 1b3c b26d c73e fef0 053f
000000a0: 5bf9 fa3e 6631 3c3f 4913 dcbe 765e 983d
000000b0: ede7 ab3e a23e bd3d 1d51 cfbd 143d 6fbd
000000c0: b92c 15bf 71a5 7bbd 25b6 6dbe 9335 6d3e
000000d0: 454d 38bf 3361 c93e d7ac 77bf 1d37 29be
000000e0: 79a8 763f aa8e 213f 4d0b b4be a41a 4e3e
000000f0: 1d74 fcbe 9d55 2bbc 954c 953e 98de a83e
00000100: 328e 313f 27f7 3fbf 5860 98be cd5f 033e
00000110: 1f91 6bbf 75fa 8ebe d714 5ebf ea70 92bf
00000120: f854 7ebe 699d 65be 6418 153f d241 463e
00000130: 340e 6c3f ac8b 873f 3f62 1dbf d942 e03e
00000140: 56f5 bdbf d2cc 11be d5c9 c5bf 9a74 353e
00000150: eb87 e6bf c656 fd3e b15b 48bf a272 72ba
00000160: 9e41 b83f 0ae5 a23f 5545 a8bf 0a0a 4cbf
00000170: 7b19 d63f 4bf0 7d3f 7517 ec3c de02 893f
00000180: a6f8 98bb f085 a13d 6936 d5bf b2d7 02bf
00000190: 1bc2 2fbf 703e b4be 7473 693f 09d7 d43d
000001a0: c0d8 f13f 6c4a 72bf 2612 cabf 7122 4c3f
000001b0: 2e90 ea3e d59a 82bf 6abc 893f c433 95be
000001c0: 4c9f c1be e190 e03f 1780 00bf 5a5d b53d
000001d0: dbc1 dabd e678 42c0 6374 53bd c497 123f
000001e0: c2c1 e0bf 9a6d 81bd c116 803f b0f6 4cbf
000001f0: 2595 97bc 3092 753f 3ccd bd3e 4cde 993f
00000200: 95e4 993e 8980 94bf 97ed a63d 7ced d23e
00000210: b2e5 11bf b2e9 95bc f27f 4bbe 92dc c5bf
00000220: 85be 23be e79e 493e c188 a33f ecc4 353f
00000230: e726 d63d 2317 913f 290d d53e b829 5cbf
00000240: ff29 2dbf 7dfd 783f befd 8fbf 1883 813f
00000250: 876b f33e 4ade 2f3d 6f2d a83c 40d1 173f
00000260: 75bf 86bf f1f4 433f f25a 80bf f387 8dbf
00000270: e775 0d3f 1865 003f bec6 353f 28b7 f33a
00000280: 431b 73bd 9260 b33e 0689 b3be d0c8 60bf
00000290: 9ed3 343e a149 2d3f 7179 3cbf e272 593e
000002a0: cdb9 cf3e 93ae 91bf aaa8 73be a7c0 dc3e
000002b0: abe3 533d e7b3 6fbe de86 f13e 80f1 c23d
000002c0: 7c0e 63bd 9970 653f 17e9 27bf 7665 373d
000002d0: 409e dc3d e675 7dbe 38fe e4bd 8ca6 a7be
000002e0: d04a 0fbe c1e6 0fbf 1d77 093f 2f17 e83e
000002f0: 2936 bf3e 1f7d 13bf 3987 443f f223 a13e
00000300: be0f 1f3f 3fe0 223d 3ecf 7abf 2491 24bf
00000310: 6b95 2dbe 0460 ab3f fb62 2dbf bd02 d6bc
00000320: 4786 c53f ce71 cebf 8502 75be 3650 933f
00000330: 7625 45bf 10fc be3e cee3 10bf a4b9 38bf
00000340: 7af8 48bf a6ab 0240 8c75 393e e559 1abf
00000350: 6118 f83e 064c 0cbf d862 0d3f 3c0e 983e
00000360: cfa5 6d3d f699 f5be c965 e93f 0189 a6be
00000370: ed87 92be 9ad6 c8bc dca6 bd3f 4b31 8c3f
00000380: 7c63 f23c 8010 853e 3d33 0abe d56b 613e
00000390: f3bd 20bf 0b34 e1be c401 c1bd 590d c93d
000003a0: 78e7 493e 82b3 363e 6cd5 803d 2f35 933e
000003b0: b920 7c3e 9688 68bf ede9 b33e 3e6f 66be
000003c0: 26bf d4be d81d eb3e bc9f 4cbe 17f1 823e
000003d0: 8cc8 183e 6b70 debe 8da6 cb3e 24cd 0e3d
000003e0: db54 37bf ab2d 203f 580d 0b3d 8fc9 a7be
000003f0: 6de1 fb3e d263 2a3f 6bac 2e3f 15d6 263f

lstm.bias_ih_l0 f4 [128]
-0.36918116 0.8147361 1.3241428 0.6862758 1.8948756 0.8950747 1.3156058 -0.22964655
0.3529189 1.0535405 -0.2545893 -0.57926583 1.499996 1.3269976 0.7327588 -0.3451259
0.18064775 -0.2590826 0.29997373 -0.34981564 -0.22441286 -0.08517485 0.35859382 -0.20997159
-0.048459817 -0.23085792 -1.0191052 0.5099655 -0.20989825 1.8241553 -1.1703814 -0.5260797
-1.1417233 -1.1992733 -0.4735519 -0.47064173 0.56457645 0.81174 -1.0276307 0.34759712
0.046941012 0.04491283 -0.44986585 -0.75474364 -1.2855852 -0.87796235 0.02993617 -0.5624356
0.116587535 -0.9187622 -0.23300226 0.082123406 -0.15393683 -1.367381 -0.84698427 -0.99312145
-1.0106694 -0.5437325 0.14038715 0.26439333 -0.1045999 0.30923444 -0.7545438 -1.1703628
-1.0610138 -0.99499357 -0.18504801 1.0256009 -1.0010142 -1.6212716 0.80352956 -0.24477041
-0.5441602 1.0851912 0.28873038 -0.6023349 1.6034997 1.1013411 -0.3798125 0.5453172
-0.9101129 -1.0658412 -0.516674 0.097045764 0.31482363 -0.037105124 -0.43193612 1.0020645
-0.6407697 0.61049765 -0.098248586 -0.1289897 -1.3021804 -0.3796882 -0.68955934 -0.45601404
-0.517187 0.26879415 -0.20559594 -0.41355857 0.4854531 -1.010677 1.5161186 0.5714226
2.282884 1.6365633 1.7085449 1.2330829 0.5560716 1.530251 1.098155 0.17112747
-0.121443026 -2.0290287 -0.6068698 1.4086181 0.79478186 2.2767117 0.94425005 -1.1744615
-2.8888736 2.2062514 1.6644493 0.95348877 -0.83188665 -0.52736247 -1.2872753 -1.8411233
00000000: 5005 bdbe 8c92 503f 837d a93f c5af 2f3f
00000010: 498b f23f 9e23 653f c565 a83f 7728 6bbe
00000020: c9b1 b43e 6ada 863f 8759 82be c44a 14bf
00000030: deff bf3f 0fdb a93f 1596 3b3f 58b4 b0be
00000040: b9fb 383e 79a6 84be 2896 993e 091b b3be
00000050: 7ccc 65be 2770 aebd 9c99 b73e cb02 57be
00000060: cd7d 46bd 0566 6cbe 0a72 82bf 198d 023f
00000070: 91ef 56be ec7d e93f 0fcf 95bf 29ad 06bf
00000080: fd23 92bf ca81 99bf 6575 f2be f4f7 f0be
00000090: 1588 103f 31ce 4f3f 6789 83bf 40f8 b13e
000000a0: 3845 403d 84f6 373d d154 e6be e136 41bf
000000b0: 0e8e a4bf 24c2 60bf b33c f53c c8fb 0fbf
000000c0: 72c5 ee3d 0034 6bbf 2598 6ebe 5130 a83d
000000d0: 9ea1 1dbe 5706 afbf f6d3 58bf 353d 7ebf
000000e0: 9d5d 81bf 0e32 0bbf a6c1 0f3e 905e 873e
000000f0: 7938 d6bd fa53 9e3e c829 41bf 73ce 95bf
00000100: 4dcf 87bf e6b7 7ebf 3a7d 3dbe e446 833f
00000110: 3c21 80bf d485 cfbf 1db4 4d3f 18a5 7abe
00000120: 154e 0bbf 8ce7 8a3f 78d4 933e 9f32 1abf
00000130: 7a3f cd3f bff8 8c3f c976 c2be e899 0b3f
00000140: 29fd 68bf 7c6d 88bf bf44 04bf eebf c63d
00000150: 9030 a13e 8bfb 17bd bb26 ddbe a643 803f
00000160: 7c09 24bf 9349 1c3f 8e36 c9bd e015 04be
00000170: d9ad a6bf 7e66 c2be f686 30bf ac7a e9be
00000180: 5e66 04bf 639f 893e be87 52be f3bd d3be
00000190: 4f8d f83e dd5d 81bf 2d10 c23f c048 123f
000001a0: c51a 1240 e87a d13f 99b1 da3f a9d5 9d3f
000001b0: b55a 0e3f 44df c33f 5890 8c3f 0a3c 2f3e
000001c0: 1fb7 f8bd 9bdb 01c0 d25b 1bbf 994d b43f
000001d0: d376 4b3f a5b5 1140 5fba 713f c154 96bf
000001e0: 4ee3 38c0 3933 0d40 ad0c d53f d717 743f
000001f0: 86f6 54bf 3a01 07bf 70c5 a4bf eea9 ebbf

lstm.bias_hh_l0 f4 [128]
-0.04574862 0.98491967 1.0885706 0.75031585 1.9803705 0.7191417 1.2731289 0.013553242
0.3690267 0.88106436 -0.10817487 -0.5207018 1.642565 1.4964832 0.6102449 -0.110039435
0.0851042 -0.24508256 0.21766701 -0.23972876 -0.41398615 -0.04914123 0.22170737 -0.15422408
-0.29087433 -0.22506958 -1.2133436 0.37019804 -0.23588394 1.7957373 -1.2028054 -0.5762895
-1.2823423 -1.0231909 -0.49549916 -0.63959837 0.36113924 0.7832168 -1.0884348 0.22211607
-0.11603242 0.03434354 -0.47863427 -0.7529822 -1.2825745 -0.8282456 0.19160393 -0.5297954
0.1244078 -0.9081232 -0.13957618 0.04830451 -0.04433434 -1.1585062 -0.95752233 -0.95044005
-1.0239587 -0.5642227 0.033891216 0.37811 -0.22237912 0.13858917 -0.5301366 -0.9560794
-0.86122185 -0.9436435 -0.03624072 1.236156 -1.3504448 -1.4855177 0.9926439 -0.27767783
-0.6629299 0.9269298 0.33140135 -0.58226895 1.5521432 1.0182047 -0.29985505 0.5717169
-0.8782421 -1.0492451 -0.45106897 -0.007801354 0.25820303 0.19502224 -0.64288664 1.1048728
-0.6648825 0.71653783 -0.069932304 -0.07992921 -1.3276461 -0.48458365 -0.5622751 -0.32934135
-0.60461104 0.100791484 0.033916164 -0.14919199 0.4037708 -0.8859258 1.5592222 0.6218521
2.1281753 1.7365496 1.5289104 1.4611189 0.5918755 1.342322 0.85157955 -0.086876236
-0.286953 -1.9686226 -0.8765069 1.2608429 0.9102685 2.3146982 1.0165112 -0.9798501
-2.798603 2.0586817 1.6772981 1.0066619 -0.841617 -0.63478696 -1.2489899 -1.6036094
00000000: e862 3bbd b223 7c3f 4856 8b3f b314 403f
00000010: c87c fd3f ac19 383f e3f5 a23f 6b0e 5e3c
00000020: 11f1 bc3e 6f8d 613f c98a ddbd b74c 05bf
00000030: 923f d23f c38c bf3f 0339 1c3f 5b5c e1bd
00000040: 1c4b ae3d ecf6 7abe 1ae4 5e3e 757b 75be
00000050: fef5 d3be 5048 49bd 4207 633e ebec 1dbe
00000060: 7bed 94be a478 66be d84e 9bbf 998a bd3e
00000070: 8f8b 71be b8da e53f 87f5 99bf b587 13bf
00000080: cb23 a4bf ebf7 82bf 11b2 fdbe b8bc 23bf
00000090: 3ee7 b83e e580 483f d551 8bbf 6572 633e
000000a0: 68a2 edbd d0ab 0c3d 8d0f f5be 71c3 40bf
000000b0: 672b a4bf e707 54bf d233 443e aca0 07bf
000000c0: 84c9 fe3d c37a 68bf 0fed 0ebe f3da 453d
000000d0: ed97 35bd ee49 94bf 2f20 75bf 0a50 73bf
000000e0: 1411 83bf e670 10bf 84d1 0a3d a297 c13e
000000f0: 5ab7 63be 52ea 0d3e 08b7 07bf 9fc1 74bf
00000100: 0979 5cbf 9f92 71bf 2671 14bd 5c3a 9e3f
00000110: 60db acbf 7225 bebf e91d 7e3f ca2b 8ebe
00000120: c6b5 29bf 454b 6d3f 70ad a93e 940f 15bf
00000130: a1ac c63f 8854 823f 9a86 99be 0a5c 123f
00000140: 79d4 60bf aa4d 86bf 83f2 e6be 80a2 ffbb
00000150: 3033 843e e9b3 473e 3894 24bf 796c 8d3f
00000160: bd35 2abf 066f 373f ab38 8fbd edb1 a3bd
00000170: 4ff0 a9bf 591b f8be 43f1 0fbf 6e9f a8be
00000180: cac7 1abf c46b ce3d adeb 0a3d c9c5 18be
00000190: 0cbb ce3e 09cc 62bf 9894 c73f b331 1f3f
000001a0: 0634 0840 4247 de3f 56b3 c33f f205 bb3f
000001b0: 2785 173f 35d1 ab3f 1e01 5a3f 2bec b1bd
000001c0: 81eb 92be d3fb fbbf c262 60bf 4d63 a13f
000001d0: 5b07 693f 0424 1440 0a1d 823f 75d7 7abf
000001e0: 501c 33c0 71c1 0340 b4b1 d63f 4cda 803f
000001f0: 3674 57bf 6681 22bf e7de 9fbf 1343 cdbf

lstm.weight_ih_l0_reverse f4 [128, 6]
1.9744481 0.31645828 -0.09867457 0.5423247 0.84684986 -0.26191887 0.5472274 -0.38217485
-0.97012144 -0.27976513 -0.5864772 0.55597067 0.8233138 0.8912168 0.006194373 -0.4521259
-0.15564844 -0.42963076 0.8928092 0.811 -0.008729956 0.10179008 0.4332894 -0.5151061
0.24918133 0.09859148 -0.3190639 0.058189806 -0.22455452 6.277347 0.64359045 -0.11286994
-0.074836254 -0.3034138 -0.09959783 -0.3449231 1.0185541 0.5628856 0.7074744 0.42998835
0.1412958 0.009198222 0.14498389 0.04533799 0.68261826 0.17462017 0.5499751 -0.44379067
1.7441468 1.433131 0.7994704 -0.046165764 -0.6109199 0.5816102 -0.34388813 0.036795937
0.1673533 -0.17887342 -0.087343484 -0.6575399 0.63063097 -0.10359881 0.5558825 -0.5730525
0.13986753 0.38839978 -0.050811555 -0.53767025 0.3461546 0.38306823 1.2970613 -0.08179373
0.7497757 0.40793768 1.2595367 -0.13379164 0.33487147 0.13096385 -0.0688135 0.9808526
0.73495966 1.6525112 1.2547116 0.3672955 0.04796866 0.364113 -1.15224 -0.30060616
0.5679575 -0.01522878 -0.14037526 0.24601631 0.3796383 0.12608254 0.31473604 0.108908206
0.36041373 0.3399684 -0.3063039 -0.42230207 1.1692476 1.2147206 -0.20958716 0.2909438
0.4424523 -0.19746067 0.08333069 0.69992536 0.3869585 0.6358987 0.22017321 -0.027405454
-0.6772937 -0.8455733 -0.001700525 -0.8275536 -0.52889436 0.4207832 0.18704738 0.13318343
-0.30092302 -0.13689025 0.03557439 0.54895264 0.12020754 -1.1177696 -0.4148375 0.4348759
0.080013655 0.59354234 1.0481559 -0.39411718 0.44552305 0.28343952 0.16379161 0.1902798
-0.40419513 0.9505658 -0.21847284 0.14617322 -0.018089773 -1.0158272 -0.15701015 0.48711008
0.21992669 0.18266568 -0.28529617 -0.015072757 -0.071332954 0.60556495 0.39893812 0.02661102
0.43597925 0.5179079 0.5640644 0.47330642 -0.16022603 -0.017935576 0.020235794 -0.060181912
-0.14369552 -0.04037708 0.69279313 0.29765004 -0.53536314 -0.16572128 1.7401773 1.1563313
0.37863454 0.24974269 0.90150315 0.67160493 -0.024371704 0.46308112 0.5044352 0.33762407
0.1543164 0.46234494 -0.8490481 -0.52674276 2.1007314 1.0338445 0.49346817 0.342235
-0.5473776 0.24466185 0.12245576 -0.11687237 -0.25167018 0.064108275 0.62239647 -0.5871182
0.16726728 0.19564375 0.2078464 0.32898045 0.14230981 -1.2301414 -0.3119618 -0.10310336
0.25580314 0.36997107 -0.015185992 -0.42291912 -1.7439833 -0.61648506 0.04421898 0.55953884
-0.8657088 0.21811652 -0.68977165 -0.09347799 0.42486688 -0.4169147 -0.28181458 -0.25059938
-0.9354867 -0.705643 -0.35828254 -0.03912218 0.0031227001 0.1517579 -0.4145741 -0.44626015
-0.5297518 0.19815922 -0.10711965 -0.39492854 -0.7668724 -0.4047151 -0.12776583 -0.52773976
-0.02199896 -0.082625836 -0.004065045 0.010012633 0.036209613 -0.1475615 0.5281929 0.011453775
0.5022331 0.3320323 -0.28901812 0.26816905 -0.038397063 -0.07603929 -0.8925306 0.15588029
0.41934103 -0.07817742 0.05506587 -0.83340526 0.22181657 -0.06385972 0.23716652 0.36780226
00000000: b7ba fc3f d206 a23e e515 cabd cbd5 0a3f
00000010: 27cb 583f 3b1a 86be 1817 0c3f 6cac c3be
00000020: e159 78bf 603d 8fbe 5f23 16bf 1854 0e3f
00000030: b1c4 523f c926 643f 2bfa ca3b 0c7d e7be
00000040: 4e62 1fbe 90f8 dbbe 258f 643f b29d 4f3f
00000050: 1708 0fbc 5177 d03d 1cd8 dd3e fedd 03bf
00000060: 6429 7f3e 54ea c93d 585c a3be 6f58 6e3d
00000070: 9ff1 65be 07e0 c840 58c2 243f 5b28 e7bd
00000080: c043 99bd 0e59 9bbe f2f9 cbbd c399 b0be
00000090: fb5f 823f 4519 103f 0b1d 353f 6f27 dc3e
000000a0: d9af 103e 24b4 163c a876 143e 54b4 393d
000000b0: 12c0 2e3f a1cf 323e 2bcb 0c3f 8838 e3be
000000c0: 3440 df3f d670 b73f 18aa 4c3f 5018 3dbd
000000d0: 3f65 1cbf 68e4 143f 1b12 b0be 56b7 163d
000000e0: aa5e 2b3e 982a 37be 24e1 b2bd 8954 28bf
000000f0: 0871 213f 9d2b d4bd 514e 0e3f 92b3 12bf
00000100: 6f39 0f3e 56dc c63e c71f 50bd c2a4 09bf
00000110: 2d3b b13e 8521 c43e 1b06 a63f 7983 a7bd
00000120: 4df1 3f3f 35dd d03e 8038 a13f ad00 09be
00000130: 4674 ab3e 631b 063e 18ee 8cbd 2819 7b3f
00000140: 5126 3c3f 7d85 d33f 649a a03f 280e bc3e
00000150: c97a 443d 056d ba3e 9a7c 93bf 0de9 99be
00000160: aa65 113f 2282 79bc 88be 0fbe b3eb 7b3e
00000170: f45f c23e c81b 013e 1525 a13e 440b df3d
00000180: 2688 b83e 5710 ae3e ddd3 9cbe fa37 d8be
00000190: e8a9 953f f77b 9b3f 049e 56be 96f6 943e
000001a0: 1c89 e23e 2133 4abe 48a9 aa3d 4f2e 333f
000001b0: 6d1f c63e 42ca 223f 1675 613e 6781 e0bc
000001c0: 1f63 2dbf 7e77 58bf 27e4 deba 8dda 53bf
000001d0: 9f65 07bf e570 d73e 5989 3f3e 3d61 083e
000001e0: 9512 9abe f52c 0cbe 74b6 113d 2988 0c3f
000001f0: 5f2f f63d 1313 8fbf 9565 d4be 0ea8 de3e
00000200: 33de a33d 64f2 173f f929 863f bac9 c9be
00000210: 991b e43e fc1e 913e fdb8 273e b5d8 423e
00000220: aaf2 cebe 4858 733f 58b7 5fbe 6fae 153e
00000230: 0131 94bc a006 82bf 45c7 20be 7e66 f93e
00000240: 7634 613e b60c 3b3e 5712 92be baf3 76bc
00000250: 0317 92bd 4e06 1b3f 9e41 cc3e 5bff d93c
00000260: ac38 df3e 9d95 043f 8666 103f 3855 f23e
00000270: 4b12 24be a1ed 92bc 89c5 a53c 4f81 76bd
00000280: eb24 13be 7062 25bd e45a 313f 9665 983e
00000290: 8f0d 09bf d7b2 29be 21be de3f aa02 943f
000002a0: 63dc c13e 8cbc 7f3e e9c8 663f 4dee 2b3f
000002b0: 2ba7 c7bc f818 ed3e aa22 013f 10dd ac3e
000002c0: 1e05 1e3e 7ab8 ec3e 375b 59bf 9dd8 06bf
000002d0: 6272 0640 0455 843f dca7 fc3e 6d39 af3e
000002e0: f020 0cbf a388 7a3e 16ca fa3d c85a efbd
000002f0: eada 80be 334b 833d 6055 1f3f 614d 16bf
00000300: 1d48 2b3e d656 483e b0d5 543e 2070 a83e
00000310: aab9 113e 4675 9dbf 75b9 9fbe db27 d3bd
00000320: a1f8 823e d96c bd3e abce 78bc db88 d8be
00000330: d83a dfbf f7d1 1dbf f61e 353d f03d 0f3f
00000340: 189f 5dbf f059 5f3e e094 30bf 6371 bfbd
00000350: 2788 d93e d875 d5be 004a 90be 904e 80be
00000360: 0e7c 6fbf 05a5 34bf cf70 b7be 943e 20bd
00000370: 37a6 4c3b 6c66 1b3e 0e43 d4be 367c e4be
00000380: d09d 07bf 40ea 4a3e 8c61 dbbd 1334 cabe
00000390: c051 44bf d136 cfbe 0cd5 02be f419 07bf
000003a0: 2a37 b4bc bc37 a9bd 1234 85bb 070c 243c
000003b0: 8850 143d 5d1a 17be a637 073f 9da8 3b3c
000003c0: 5992 003f 2300 aa3e 2ffa 93be 744d 893e
000003d0: 3d46 1dbd 7dba 9bbd e37c 64bf 159f 1f3e
000003e0: deb3 d63e 7c1b a0bd c08c 613d 0c5a 55bf
000003f0: e223 633e e3c8 82bd c8db 723e 9450 bc3e

lstm.weight_hh_l0_reverse f4 [128, 32]
0.39875126 0.27818397 1.19495 -1.6282057 0.17594035 1.0667901 -0.857749 -0.8685899
-0.8033115 0.8995035 0.8070267 1.7000972 1.0067661 -0.41708633 -0.025437186 -0.553436
0.103446476 0.80349773 0.22912401 -0.026233481 0.5220573 -0.9787556 0.6118694 0.76560503
1.6167742 -0.8533497 -0.118008815 1.1615899 0.49031794 0.9371703 -0.81869453 0.74376035
-0.20641102 -0.32868156 -0.4963425 -0.27880833 0.88536966 -0.13154662 0.059005283 -0.15907006
-0.16815253 0.09387386 -0.4851303 0.82076716 0.510598 0.12910773 0.2880883 -0.04088944
-0.7398012 1.0340021 0.6822268 -0.8959636 0.07604373 -0.6854541 0.7214465 -0.06357883
0.17743734 -0.3512352 -0.1269474 1.0574647 -0.094667085 -0.4013214 -0.36183637 0.2983793
-0.57723975 0.14332768 0.3635627 -0.53828907 0.83815885 0.4251095 -0.2914235 0.6567135
0.3524587 0.82036185 -0.59319717 0.47810775 -0.8062127 0.2499151 -1.4047791 0.5147569
-0.00659795 0.52923846 -0.19462012 -0.4878328 0.8495171 1.0806946 -1.0604203 -0.92501277
0.62356734 -0.03304332 -0.3948017 0.6296843 -1.6492807 -0.030437367 -0.062898904 -0.8162312
-0.67145514 0.72143656 0.06372966 0.18760905 -0.08451904 0.13716143 -0.83916426 -0.14331439
-0.29258916 -0.3564517 0.54401296 -0.2663143 0.40799165 0.8427324 0.10514002 -0.20957129
0.80435675 0.2962004 0.45829228 -0.5087575 0.74942774 -0.6232545 0.2982158 0.23922016
0.66487044 0.4623468 0.46344224 0.18323433 0.42543346 0.7700528 -0.5705603 0.051945105
0.937611 -0.37838617 0.87497485 -0.48913485 0.23477742 0.937428 1.4162402 -1.2323599
0.64738816 0.64460164 -0.6879818 0.716929 1.4326557 -0.67081875 0.5668033 -0.39610574
0.28178748 -0.35996717 -1.4971721 0.39772338 1.0601033 -0.19736925 -1.0200527 -0.5518201
0.31445706 0.8459984 0.29296568 0.9702011 -0.18992046 1.0857369 0.225476 -0.16288087
-1.2490344 -0.019997789 0.08671855 0.28256524 1.1581383 0.47057626 -1.2251107 0.49527425
1.9489523 -0.13037139 -2.026748 -1.1122363 -0.2435445 0.87132454 -0.8888523 0.32710966
-0.87021834 -0.1474904 0.7711895 0.31276056 0.29037228 0.5769568 0.5307696 0.8376731
0.008961525 0.7708899 0.5127587 0.7649945 0.34360865 0.8578485 0.013036934 -1.8160045
-0.2814262 0.046050668 0.44893968 0.43842477 0.38009006 -0.47828877 -1.2113113 0.28519326
-0.26080573 0.40060154 -0.25254014 -0.14136699 0.29417777 -0.28797233 -0.4136961 0.27410117
-0.37754646 0.51056844 -0.026748605 -0.34394997 0.06325313 0.05929724 -0.14122733 0.07274984
0.11380486 -0.16345432 -0.21903922 0.65737396 0.41292727 0.30502555 0.20814228 -0.26909283
-1.0367198 0.1922354 -0.19963433 0.8610717 0.21101974 -0.39469072 -0.84394085 0.57007635
-0.2317018 0.097923495 0.9956569 0.1646873 -0.21896349 0.25240073 0.46509466 -0.71912265
0.2833022 0.46522513 0.9962194 -0.2560014 -0.5181161 0.8721659 1.6777953 -0.16883676
-0.11960812 0.056231815 1.2496794 0.3539658 0.447516 -0.50433326 -0.6500998 0.053587034
00000000: 2029 cc3e 216e 8e3e 1ff4 983f 0b69 d0bf
00000010: b529 343e 948c 883f 7095 5bbf e85b 5ebf
00000020: d3a5 4dbf dd45 663f 4d99 4e3f c99c d93f
00000030: b6dd 803f 578c d5be a561 d0bc fbad 0dbf
00000040: bfdb d33d 07b2 4d3f 7c9f 6a3e 99e7 d6bc
00000050: 8ca5 053f ba8f 7abf 79a3 1c3f b1fe 433f
00000060: 75f2 ce3f 2075 5abf 9bae f1bd faae 943f
00000070: f40a fb3e 65ea 6f3f f795 51bf 1467 3e3f
00000080: 695d 53be f348 a8be 9b20 febe f7bf 8ebe
00000090: 96a7 623f 28b4 06be 86af 713d 43e3 22be
000000a0: 2d30 2cbe f040 c03d 0063 f8be cc1d 523f
000000b0: 8db6 023f d134 043e 4f80 933e af7b 27bd
000000c0: 9d63 3dbf 2e5a 843f 6aa6 2e3f df5d 65bf
000000d0: d1bc 9b3d eb79 2fbf b8b0 383f 9e35 82bd
000000e0: 22b2 353e 1ad5 b3be 80fe 01be 015b 873f
000000f0: d1e0 c1bd 007a cdbe 9e42 b9be 2cc5 983e
00000100: fcc5 13bf 7ec4 123e e424 ba3e 50cd 09bf
00000110: 9491 563f f4a7 d93e 7635 95be 601e 283f
00000120: 7775 b43e 3c03 523f c5db 17bf 8aca f43e
00000130: f563 4ebf bee9 7f3e cdcf b3bf 1cc7 033f
00000140: 9e33 d8bb 2c7c 073f 7f4a 47be 39c5 f9be
00000150: f479 593f 3354 8a3f dabb 87bf a3cd 6cbf
00000160: 1ca2 1f3f 6f58 07bd 7323 cabe fe32 213f
00000170: a11b d3bf c957 f9bc 24d1 80bd 87f4 50bf
00000180: 7ce4 2bbf 11b0 383f b284 823d 961c 403e
00000190: 5218 adbd 0c74 0c3e 78d3 56bf 02c1 12be
000001a0: 3fce 95be d680 b6be 6f44 0b3f 595a 88be
000001b0: 48e4 d03e 50bd 573f a753 d73d db99 56be
000001c0: 53ea 4d3f 94a7 973e 49a5 ea3e ee3d 02bf
000001d0: 7fda 3f3f 9b8d 1fbf beaf 983e 21f6 743e
000001e0: f334 2a3f b8b8 ec3e 4d48 ed3e c8a1 3b3e
000001f0: 6ad2 d93e 2e22 453f 3d10 12bf 64c4 543d
00000200: 4607 703f d5bb c1be 5afe 5f3f e26f fabe
00000210: 7e69 703e 48fb 6f3f 5c47 b53f f8bd 9dbf
00000220: 3bbb 253f 9d04 253f 931f 30bf a988 373f
00000230: 4361 b73f c7ba 2bbf 051a 113f 5fce cabe
00000240: 7346 903e 9e4d b8be 56a3 bfbf 66a2 cb3e
00000250: 77b1 873f 2a1b 4abe 1691 82bf 1544 0dbf
00000260: 8400 a13e 5a93 583f 99ff 953e 195f 783f
00000270: 827a 42be 6df9 8a3f 2ee3 663e 3eca 26be
00000280: 5ce0 9fbf 67d2 a3bc 7f99 b13d 64ac 903e
00000290: e03d 943f 5fef f03e 6dd0 9cbf 9694 fd3e
000002a0: 4577 f93f 1480 05be 3db6 01c0 c25d 8ebf
000002b0: bb63 79be 200f 5f3f d38b 63bf eb7a a73e
000002c0: a1c6 5ebf b907 17be ad6c 453f 2722 a03e
000002d0: adab 943e 71b3 133f 84e0 073f bf71 563f
000002e0: 5cd3 123c 0a59 453f 2744 033f aed6 433f
000002f0: 79ed af3e f69b 5b3f dd98 553c d672 e8bf
00000300: 1817 90be a09f 3c3d 6cdb e53e 3679 e03e
00000310: 2a9b c23e 44e2 f4be 400c 9bbf da04 923e
00000320: 5488 85be a51b cd3e f14c 81be 82c2 10be
00000330: 789e 963e 1c71 93be facf d3be fd56 8c3e
00000340: c54d c1be 9db4 023f e41f dbbc 361a b0be
00000350: db8a 813d aae1 723d e69d 10be defd 943d
00000360: 8612 e93d 9260 27be d14b 60be a949 283f
00000370: 346b d33e 4f2c 9c3e 4023 553e 89c6 89be
00000380: 3cb3 84bf 5bd9 443e f16c 4cbe 326f 5c3f
00000390: 8f15 583e e714 cabe 820c 58bf 86f0 113f
000003a0: 3d43 6dbe 1d8c c83d 5fe3 7e3f caa3 283e
000003b0: f737 60be ab3a 813e e320 ee3e 6c18 38bf
000003c0: fc0c 913e fd31 ee3e 3c08 7f3f 9e12 83be
000003d0: 42a3 04bf 4446 5f3f ffc1 d63f 8be3 2cbe
000003e0: 1af5 f4bd 5553 663d 7ff5 9f3f 013b b53e
000003f0: d120 e53e fc1b 01bf f16c 26bf 147e 5b3d

lstm.bias_ih_l0_reverse f4 [128]
0.456579 0.6027673 0.9380761 0.39630997 0.5309538 0.4948252 0.756899 -0.39375642
0.44781923 1.0748198 0.23059843 -0.46714988 1.1675258 -0.16281575 0.013850375 0.86990315
0.5372467 -0.40948495 1.187528 -0.42402005 0.9159381 -0.73113114 -0.3234889 -0.17185779
-1.6100115 0.3287346 0.20298791 0.29493386 -0.6141568 0.22515143 0.9394071 0.2773715
0.4435847 -1.0926148 -0.43330333 0.36556226 0.09597994 -0.025269201 -0.2299845 0.09224065
-0.3385852 -0.14957364 0.011186912 -0.098269165 -0.26439953 -0.26203302 -0.49873716 0.25568712
-0.85769725 -0.7669616 0.35739866 -0.6372764 -0.6464011 -0.4005633 -0.17720851 -0.6612586
-0.108477846 -0.03735785 -0.9029863 -0.075592205 -0.11612938 -0.59232575 -0.74909496 -0.6543329
-0.16349347 0.45547023 -0.056496963 1.6306612 -0.15562356 -0.25726572 -0.49801242 0.4004
0.2665306 -0.45057872 -0.29694894 -0.47003457 0.46406683 -0.23239858 0.5012068 0.2273398
-0.2977486 -0.05091025 0.541281 -0.39034975 0.6032515 -0.41163334 0.9146027 0.0032456417
-0.2631826 -0.14115608 -1.5856915 0.27688342 -0.9274337 0.426444 -0.6799684 -0.80534273
1.8115668 1.2236017 1.9037983 0.3516398 0.12180807 1.063393 0.49290067 -0.07575622
2.8057675 0.5429238 1.3858376 -0.034662135 1.3161345 0.13349862 -0.50501543 0.26520777
1.0487615 0.31365976 0.6061174 -1.2037237 0.65336466 1.7431041 0.010312532 -1.2047026
-2.1861832 -0.39972296 -0.7017397 0.5788086 0.85978734 -0.11526889 1.364938 1.1389613
00000000: b9c4 e93e f54e 1a3f c125 703f 24e9 ca3e
00000010: 97ec 073f bb59 fd3e 22c4 413f 719a c9be
00000020: 9048 e53e b293 893f ff21 6c3e 452e efbe
00000030: 7c71 953f 2cb9 26be afec 623c f9b1 5e3f
00000040: 0089 093f 03a8 d1be eb00 983f 2819 d9be
00000050: eb7a 6a3f 692b 3bbf 56a0 a5be 7dfb 2fbe
00000060: db14 cebf e74f a83e 10dc 4f3e 9201 973e
00000070: 6139 1dbf 198e 663e fc7c 703f a303 8e3e
00000080: 891d e33e cdda 8bbf efd9 ddbe fa2a bb3e
00000090: 2191 c43d 5b01 cfbc 0f81 6bbe aae8 bc3d
000000a0: 0a5b adbe d529 19be 4f49 373c 5841 c9bd
000000b0: 605f 87be 3129 86be 7a5a ffbe 6ce9 823e
000000c0: 0c92 5bbf 9857 44bf f5fc b63e 8c24 23bf
000000d0: 8b7a 25bf a216 cdbe 2676 35be 3e48 29bf
000000e0: a229 debd 8b04 19bd 1c2a 67bf 16d0 9abd
000000f0: 3ed5 edbd a9a2 17bf b0c4 3fbf 5c82 27bf
00000100: d56a 27be 6533 e93e 5c69 67bd 82b9 d03f
00000110: c85b 1fbe 55b8 83be 7cfb febe 3b01 cd3e
00000120: b376 883e 41b2 e6be b109 98be 5fa8 f0be
00000130: 2b9a ed3e e5f9 6dbe 174f 003f c4cb 683e
00000140: 8172 98be 4487 50bd 6491 0a3f ecdb c7be
00000150: b16e 1a3f 9bc1 d2be 6723 6a3f d5b4 543b
00000160: dfbf 86be 388b 10be f0f7 cabf aac3 8d3e
00000170: 4c6c 6dbf de56 da3e 6912 2ebf f12a 4ebf
00000180: 6ce1 e73f fb9e 9c3f aaaf f33f 220a b43e
00000190: 8276 f93d 431d 883f 7a5d fc3e 1426 9bbd
000001a0: b291 3340 0efd 0a3f 2063 b13f e2f9 0dbd
000001b0: 1877 a83f ddb3 083e b148 01bf 50c9 873e
000001c0: d13d 863f 0398 a03e 832a 1b3f 9e13 9abf
000001d0: e842 273f 091e df3f e5f5 283c b233 9abf
000001e0: 6dea 0bc0 7da8 ccbe 37a5 33bf cd2c 143f
000001f0: 061b 5c3f 1912 ecbd 4ab6 ae3f 7cc9 913f

lstm.bias_hh_l0_reverse f4 [128]
0.7464156 0.69818604 0.8513596 0.099171415 0.53261364 0.5006701 0.72419614 -0.25989282
0.38907295 1.0635351 0.32423675 -0.2288162 1.006921 -0.19122133 0.027934164 0.7482756
0.50340736 -0.2612014 1.2926347 -0.38628703 0.91923195 -0.7137734 -0.26748857 -0.26249224
-1.5887302 0.32203794 0.28606337 0.22825637 -0.33663926 0.24393247 0.92517275 0.4454404
0.49627554 -1.3289177 -0.68015397 0.3794539 0.024871703 -0.010597629 -0.056577776 0.17226526
-0.46228555 -0.25910413 -0.096880585 -0.09272197 -0.32616952 -0.35015643 -0.5442536 0.2124051
-0.8223729 -0.856637 0.20339471 -0.6534408 -0.47488886 -0.40932235 -0.1157898 -0.53160924
-0.3200714 0.19542341 -0.5702987 -0.17867404 -0.27035937 -0.55577266 -0.58315474 -0.7100431
-0.31678113 0.66937196 -0.11319337 1.7831784 -0.061213184 -0.27724305 -0.5072621 0.3621344
0.08106404 -0.32550687 -0.38457206 -0.5756656 0.51522696 -0.21116821 0.51199955 -0.01125344
-0.24087486 -0.2558285 0.50785667 -0.17202803 0.43291822 -0.4642418 0.7014104 0.100077234
0.0020775544 -0.18279356 -1.4082646 0.51086915 -0.6720661 0.25036532 -0.4964547 -0.71233076
1.7845267 1.132156 2.0028915 0.42377424 0.30920595 1.0426066 0.666505 -0.07460107
2.657595 0.48574978 1.2731798 -0.055905186 1.3362181 0.29537952 -0.5748926 0.35960656
1.2646904 0.2571064 0.77633244 -1.4199183 0.8720572 1.5452439 0.0101085855 -1.2909002
-2.227975 -0.39530465 -0.5634862 0.635073 0.8909893 -0.3161343 1.3037169 1.2186425
00000000: 1815 3f3f 52bc 323f b4f2 593f 621a cb3d
00000010: 5e59 083f ea2b 003f eb64 393f ac10 85be
00000020: 9234 c73e eb21 883f 5c02 a63e cb4e 6abe
00000030: cae2 803f 86cf 43be 30d6 e43c fd8e 3f3f
00000040: 4edf 003f 31bc 85be 0e75 a53f 6ac7 c5be
00000050: c952 6b3f dbb9 36bf 43f4 88be 6265 86be
00000060: 835b cbbf 28e2 a43e e676 923e 0abc 693e
00000070: fb5b acbe 6fc9 793e 1fd8 6c3f c410 e43e
00000080: d417 fe3e fa19 aabf 921e 2ebf c847 c23e
00000090: bebf cb3c ada1 2dbc 19be 67bd 4e66 303e
000000a0: b1b0 ecbe 4ca9 84be 5469 c6bd 04e5 bdbd
000000b0: b1ff a6be b447 b3be 3454 0bbf b980 593e
000000c0: 0887 52bf 904c 5bbf b446 503e e547 27bf
000000d0: a224 f3be b392 d1be 3423 edbd 8b17 08bf
000000e0: 66e0 a3be 131d 483e 18ff 11bf 54f6 36be
000000f0: 8b6c 8abe 1e47 0ebf a149 15bf 62c5 35bf
00000100: 2331 a2be f65b 2b3f edd1 e7bd 313f e43f
00000110: adba 7abd cdf2 8dbe eedb 01bf ae69 b93e
00000120: e704 a63d d6a8 a6be a1e6 c4be d25e 13bf
00000130: eae5 033f 7b3c 58be 6712 033f 5960 38bc
00000140: e6a7 76be f4fb 82be e502 023f 1e28 30be
00000150: 75a7 dd3e 1ab1 edbe a28f 333f 4bf5 cc3d
00000160: 9427 083b 3c2e 3bbe 0442 b4bf 52c8 023f
00000170: 860c 2cbf e22f 803e 4f2f febe 4f5b 36bf
00000180: 5f6b e43f 7dea 903f 602f 0040 f0f8 d83e
00000190: 3e50 9e3e 2274 853f 12a0 2a3f 72c8 98bd
000001a0: 0916 2a40 32b4 f83e 8ef7 a23f d6fc 64bd
000001b0: 3209 ab3f fc3b 973e 292c 13bf 5a1e b83e
000001c0: 60e1 a13f 73a3 833e b9bd 463f e2bf b5bf
000001d0: 243f 5f3f 8dca c53f 7b9e 253c 383c a5bf
000001e0: 2497 0ec0 5f65 cabe a240 10bf 2594 223f
000001f0: e017 643f 5bdc a1be 32e0 a63f 7afc 9b3f

lstm.weight_ih_l1 f4 [128, 64]
2.0100405 0.41867954 -1.7233205 -0.007971163 -0.32775623 0.079508446 -0.24478142 0.08007613
0.829106 -1.1910073 -0.15827389 2.962678 0.13656358 -0.16192879 0.06543574 -1.9058233
-1.1580061 0.3343905 0.80520463 -0.5010883 -0.03342002 -0.122909404 -1.1382155 2.4996603
-0.72544324 -0.46239167 0.63934994 0.018189406 0.21897782 -0.09880834 1.4736623 0.007582814
-0.7231908 -1.0525137 0.7544107 0.42007956 -0.30217445 0.8903162 0.8742048 1.2510848
0.025376037 1.0035877 0.39578116 -1.2063589 0.088151656 0.04387896 -1.9461522 -0.47078678
0.2368892 -0.55571073 0.9364554 -1.1306076 -3.0068715 0.019674128 0.096008055 1.9018303
0.6517412 0.4712277 0.54406154 -0.63037467 0.989557 0.21578567 0.55611473 0.75833845
0.3815924 0.23511234 0.8984076 0.43605196 -0.17352797 -0.13824888 -1.2364341 -0.037435044
-0.0632009 0.72533655 -0.09841038 -1.4888543 0.49274942 -0.41671145 -0.48124704 -0.11549468
-0.6349747 -0.2936045 0.057994086 0.35916284 -0.9818968 -0.53585774 -0.6187226 -0.45606828
-0.5992229 0.91668457 0.86721575 -0.1519556 0.47512662 0.22684541 -0.9875161 0.73780334
-0.6953725 1.1253086 -1.2035526 1.8491429 0.058463275 -1.1178671 0.04653665 0.33264965
0.18227178 -0.8459707 -0.65139806 -0.20063719 -0.22717912 0.66220653 -0.055118658 -0.05193747
0.49967727 -0.69031686 0.33617407 -0.28748333 0.13064094 1.8426805 -0.057708066 1.3671408
0.6082187 1.1265035 0.077900596 0.001075483 0.16498399 -0.22382058 0.57662386 -1.1444217
1.5348349 0.33705723 -0.14496647 0.3795165 -0.44961876 -0.46110728 -0.6725949 -0.47074035
0.10325116 -0.35066962 0.02588575 -0.4123528 -0.70950854 -0.26789355 0.90847385 1.6776581
-1.1924171 -0.16824833 0.06602811 0.4049505 0.40187913 0.5558067 -0.6911855 -0.4329883
0.591681 0.86435366 -0.24644789 -0.044189032 -0.40736693 0.78417724 0.32202867 0.8786147
1.2214423 0.7162171 1.5810155 -0.87729603 -0.1884677 0.78083086 0.36288697 0.8033976
0.17938001 0.23717366 0.58173704 0.050524514 1.8380314 -0.16450208 -1.2041713 -0.10134292
0.06931823 -0.20572923 -0.3584257 -0.5766048 0.7947472 -0.3829079 -0.023999335 -0.5643165
1.2224671 0.65232605 -0.598077 -0.24479896 -0.40847224 -0.8690671 -0.9976291 0.4215737
0.9291991 0.16545384 0.1325698 -0.3050992 1.0246391 -0.46322787 0.19777082 0.38640857
0.12759246 -0.9014104 0.18820706 0.6457628 -0.11520069 -0.49021116 -0.025463764 -0.012922321
-0.294323 -0.108923964 0.35575894 0.14365774 1.4159076 -0.56277865 0.596227 0.9357759
-0.020047856 -0.42153126 -0.10681534 0.8882582 0.7918026 0.09153982 -0.04190764 0.09986901
-0.18132138 0.31878698 0.41103244 0.5578122 -0.07075019 0.9076852 1.6758511 -0.4401684
-0.3647173 0.06804021 0.3829238 -0.18529178 0.3664536 0.6777038 0.22517814 -0.12791978
0.15581869 0.6731598 0.027000885 -0.383415 -0.35932907 -0.18537842 -0.10174672 0.358123
0.5942954 0.025172532 1.2081375 0.026431361 -0.13955668 -0.17547256 -0.24857269 -0.1181753
00000000: 81a4 0040 2a5d d63e c495 dcbf 7b99 02bc
00000010: aacf a7be 53d5 a23d fba7 7abe f4fe a33d
00000020: 4a40 543f ed72 98bf 8d12 22be 849c 3d40
00000030: 53d7 0b3e a9d0 25be 2c03 863d 05f2 f3bf
00000040: 8b39 94bf 3b35 ab3e e421 4e3f 5347 00bf
00000050: 6ee3 08bd edb7 fbbd 0cb1 91bf 6ffa 1f40
00000060: a6b6 39bf 9abe ecbe 70ac 233f f301 953c
00000070: b93b 603e 075c cabd f7a0 bc3f 4179 f83b
00000080: 0823 39bf c5b8 86bf 0f21 413f ab14 d73e
00000090: 9cb6 9abe c3eb 633f e3cb 5f3f 8c23 a03f
000000a0: 68e1 cf3c 9075 803f d4a3 ca3e f869 9abf
000000b0: db88 b43d 6dba 333d 841b f9bf f70a f1be
000000c0: 1593 723e 0f43 0ebf 8bbb 6f3f c0b7 90bf
000000d0: 9570 40c0 a32b a13c df9f c43d 2d6f f33f
000000e0: 83d8 263f c244 f13e 9e47 0b3f 3c60 21bf
000000f0: 9c53 7d3f ebf6 5c3e 895d 0e3f 7822 423f
00000100: 1460 c33e 4ac1 703e 0afe 653f 3442 df3e
00000110: 51b1 31be 1d91 0dbe 7943 9ebf 7d55 19bd
00000120: 796f 81bd a8af 393f 628b c9bd c792 bebf
00000130: a749 fc3e 345b d5be 0366 f6be 7a88 ecbd
00000140: b48d 22bf 5453 96be 358b 6d3d 31e4 b73e
00000150: 975d 7bbf f92d 09bf 9b64 1ebf c881 e9be
00000160: ac66 19bf d7ab 6a3f da01 5e3f 409a 1bbe
00000170: cc43 f33e 2a4a 683e dbcd 7cbf aee0 3c3f
00000180: ef03 32bf 1d0a 903f 030e 9abf b7b0 ec3f
00000190: 3077 6f3d 4516 8fbf 379d 3e3d 0e51 aa3e
000001a0: 74a5 3a3e 8991 58bf 06c2 26bf d673 4dbe
000001b0: a5a1 68be 5e86 293f 1ac4 61bd 62bc 54bd
000001c0: b3d5 ff3e 9bb8 30bf 021f ac3e 0431 93be
000001d0: bdc6 053e f4dc eb3f 4b5f 6cbd 78fe ae3f
000001e0: 39b4 1b3f 4431 903f 598a 9f3d 39f7 8c3a
000001f0: 90f1 283e 3931 65be 9f9d 133f 697c 92bf
00000200: 7875 c43f c492 ac3e 1772 14be fd4f c23e
00000210: 6e34 e6be 4116 ecbe 2e2f 2cbf e104 f1be
00000220: 5875 d33d f88a b3be 5a0e d43c e81f d3be
00000230: 5aa2 35bf 5829 89be be91 683f 80bd d63f
00000240: 20a1 98bf 4a49 2cbe bf39 873d ac55 cf3e
00000250: 1ac3 cd3e 5949 0e3f 88f1 30bf a4b0 ddbe
00000260: 6878 173f 4846 5d3f d65c 7cbe 8fff 34bd
00000270: 6692 d0be d7bf 483f f1e0 a43e e5ec 603f
00000280: 3958 9c3f 015a 373f b75e ca3f 7996 60bf
00000290: adfd 40be 88e4 473f 52cc b93e 77ab 4d3f
000002a0: 65af 373e a7dd 723e b8ec 143f cbf2 4e3d
000002b0: 9d44 eb3f 3c73 28be 4922 9abf e08c cfbd
000002c0: b7f6 8d3d afaa 52be 9383 b7be 5f9c 13bf
000002d0: 8d74 4b3f 810c c4be 419a c4bc 0c77 10bf
000002e0: cd79 9c3f d7fe 263f 931b 19bf 94ac 7abe
000002f0: 4623 d1be 2e7b 5ebf 9f64 7fbf 82d8 d73e
00000300: fedf 6d3f bb6c 293e 61c0 073e f635 9cbe
00000310: 6027 833f 342c edbe 6f84 4a3e 58d7 c53e
00000320: 99a7 023e d5c2 66bf 5ab9 403e b650 253f
00000330: 57ee ebbd f5fc fabe 6299 d0bc 25b8 53bc
00000340: 81b1 96be 8713 dfbd 0926 b63e 041b 133e
00000350: 763c b53f 4312 10bf 55a2 183f 028f 6f3f
00000360: 673b a4bc f2d2 d7be 00c2 dabd e464 633f
00000370: 93b3 4a3f 3b79 bb3d 58a7 2bbd 2088 cc3d
00000380: 50ac 39be 0c38 a33e d872 d23e c8cc 0e3f
00000390: 7ae5 90bd 0f5e 683f 4a82 d63f c15d e1be
000003a0: 3abc babe aa58 8b3d 970e c43e 21bd 3dbe
000003b0: ce9f bb3e ff7d 2d3f 1995 663e 67fd 02be
000003c0: ef8e 1f3e 3354 2c3f f630 dd3c f94e c4be
000003d0: fbf9 b7be d7d3 3dbe 9660 d0bd e65b b73e
000003e0: be23 183f a036 ce3c 40a4 9a3f 9586 d83c
000003f0: f2e7 0ebe 14af 33be d789 7ebe e405 f2bd

lstm.weight_hh_l1 f4 [128, 32]
-0.7778152 -0.24627712 1.335342 -0.32553726 0.6738176 0.2367279 -1.0395772 0.6549672
-0.6916013 -0.07425933 -1.3993701 -0.21982396 -1.054084 -1.2360724 0.6885553 0.1197072
-0.09563002 -0.038910214 -0.31373632 -0.9816023 0.010488815 -0.9316094 0.5163492 0.31204578
0.51752925 -0.521266 -0.93078 -0.07243558 -0.35047725 0.29129374 0.6265808 -0.4706326
-0.021275034 -0.33840993 0.3240805 -0.49541494 0.14607604 0.1720813 0.07744462 0.6219175
0.32893512 -0.23670381 0.11376319 0.120652266 -0.18282634 -0.19402546 0.7672047 -0.13199203
-0.12117977 -0.31158838 -0.05545393 -0.8970702 -0.052706894 0.68357486 -0.4762515 0.8024045
0.41429773 -0.09359843 0.8447315 0.26036376 -0.20717691 0.08838191 -0.35843486 0.11517648
0.1305632 -0.010886795 -0.06806516 -0.14928235 -1.1600618 0.78133833 0.21837582 -0.44067
0.11114913 0.40547645 0.4406174 0.7209404 1.3282356 -0.36858985 -0.31936577 0.40508652
0.93251044 -0.7517918 -0.2120072 1.6448852 -0.8602136 0.13689077 0.71934766 0.18387358
0.3779621 0.30680186 0.18895712 0.3525835 0.023252659 -0.45224664 0.6655634 0.10973881
-0.04074373 0.21411674 -0.053933486 0.2317483 -0.5527544 -0.51140606 0.3611254 -0.09346119
0.21940906 -0.1976645 0.58241266 0.41819528 0.0637298 -0.035083298 0.16070352 -0.34001946
-0.6239519 -0.00487863 0.3626472 0.5068558 0.06327516 0.20849274 -0.66307795 0.40139988
-0.21885103 0.075172074 0.65222275 0.4792433 -0.43094525 0.16081026 0.09814628 0.09358677
1.2863667 2.0622537 0.14708193 0.62421715 -1.6410422 -0.5616485 -0.006240281 -0.47816777
-0.8183644 0.1315764 0.1339618 0.29164308 -0.973581 0.48126215 2.3097174 1.894685
-1.476243 0.47684833 -0.39310566 -0.85621035 0.570128 -0.5458872 1.0050787 -0.13598561
1.4349366 0.9544365 2.671591 -0.13256024 0.8567418 0.08489268 0.2817904 1.3006048
-0.14831363 0.13945186 0.11426933 0.025803471 0.05428612 0.3557368 -0.13853486 -0.25116947
-0.16626668 0.0067087756 0.063979 -0.09078375 -0.10649751 0.19915362 -0.18664314 -0.030477332
-0.59082216 0.08277572 -0.14536913 -0.0064580636 -0.035820253 -0.12252287 -0.10197726 0.35054958
-0.154922 -0.059755772 -0.3244382 0.010035992 -0.054133825 -0.19193305 0.24149482 -0.09443567
1.1439543 0.37216625 0.4878907 0.25281468 -0.1264372 -1.2032217 0.29161027 0.16770265
0.22835433 0.35169575 0.26798955 0.19828267 0.17147829 -0.705902 0.14757174 0.6559325
-0.40364805 -0.16560376 -0.565439 -0.007071245 0.1412196 0.60624135 -0.37495497 0.25024313
0.2866925 0.42681193 0.81335753 0.16161947 -0.43390098 -0.24371058 0.025435824 -0.06450615
-0.1398888 0.305313 -0.015276488 -0.2121773 -0.008014356 0.05913749 -0.814758 -0.09980014
0.30535722 0.41847444 0.16190109 0.0902477 0.10283727 -0.06519559 0.59922266 -0.014674325
-0.17504175 0.056425218 -0.0038106814 -0.37089163 -0.24278711 -0.1906819 -0.12875313 -0.04509657
0.38209465 -0.7332014 0.07087388 0.1872479 0.09940906 -0.0022224917 -0.39234763 0.32187805
00000000: e61e 47bf 1230 7cbe 7dec aa3f d2ac a6be
00000010: 4f7f 2c3f cc68 723e de10 85bf eeab 273f
00000020: c80c 31bf 4715 98bd 8f1e b3bf 8819 61be
00000030: 39ec 86bf 9f37 9ebf 2945 303f 0c29 f53d
00000040: acd9 c3bd 5160 1fbd 0ca2 a0be 4a4a 7bbf
00000050: 47d9 2b3c f47d 6ebf 762f 043f 77c4 9f3e
00000060: cc7c 043f b071 05bf 9947 6ebf 1b59 94bd
00000070: c171 b3be 7424 953e 9967 203f c2f6 f0be
00000080: fb48 aebc 1144 adbe e1ed a53e 07a7 fdbe
00000090: f594 153e 1536 303e 499b 9e3d fc35 1f3f
000000a0: 2f6a a83e 7c62 72be adfc e83d 8918 f73d
000000b0: d436 3bbe 9cae 46be 8767 443f eb28 07be
000000c0: 192d f8bd 8388 9fbe a923 63bd 65a6 65bf
000000d0: 2fe3 57bd c3fe 2e3f 3dd7 f3be 626a 4d3f
000000e0: d51e d43e 89b0 bfbd 5340 583f 664e 853e
000000f0: 2f26 54be 9301 b53d c684 b7be a5e1 eb3d
00000100: 5cb2 053e 875e 32bc bf65 8bbd 79dd 18be
00000110: e87c 94bf ca05 483f e99d 5f3e 809f e1be
00000120: 28a2 e33d 9c9a cf3e 9b98 e13e 8d8f 383f
00000130: a003 aa3f cfb7 bcbe e983 a3be 8067 cf3e
00000140: 01b9 6e3f 6d75 40bf 6a18 59be 998b d23f
00000150: f536 5cbf 182d 0c3e 2b27 383f 5b49 3c3e
00000160: 4084 c13e 2215 9d3e fa7d 413e d385 b43e
00000170: 5c7c be3c df8c e7be 5d62 2a3f bebe e03d
00000180: e6e2 26bd 6b41 5b3e 5ce9 5cbd 6d4f 6d3e
00000190: 5081 0dbf 82eb 02bf 6ee5 b83e 9568 bfbd
000001a0: c5ac 603e 9068 4abe ff18 153f b11d d63e
000001b0: c584 823d 81b3 0fbd 778f 243e 0817 aebe
000001c0: 50bb 1fbf eadc 9fbb e5ac b93e 4dc1 013f
000001d0: 6896 813d 1f7f 553e 7abf 29bf 4984 cd3e
000001e0: 7c1a 60be d1f3 993d 12f8 263f 615f f53e
000001f0: dba4 dcbe 72ab 243e eb00 c93d 6caa bf3d
00000200: aaa7 a43f f7fb 0340 a59c 163e b2cc 1f3f
00000210: ac0d d2bf 32c8 0fbf 457b ccbb 68d2 f4be
00000220: 5480 51bf f7bb 063e 482d 093e 3e52 953e
00000230: 9b3c 79bf fe67 f63e 69d2 1340 0a85 f23f
00000240: 88f5 bcbf 7725 f43e 2545 c9be 9a30 5bbf
00000250: e9f3 113f 43bf 0bbf 6ba6 803f d03f 0bbe
00000260: 01ac b73f f355 743f 59fb 2a40 dfbd 07be
00000270: 6e53 5b3f 37dc ad3d d546 903e 387a a63f
00000280: 87df 17be 78cc 0e3e 0a06 ea3d cd61 d33c
00000290: 1f5b 5e3d 2223 b63e 15dc 0dbe 4999 80be
000002a0: d041 2abe 4ad5 db3b 6c07 833d d5ec b9bd
000002b0: 5e1b dabd edee 4b3e 611f 3fbe 99ab f9bc
000002c0: 1f40 17bf 5186 a93d a5db 14be 2a9e d3bb
000002d0: 42b8 12bd 45ed fabd 74d9 d0bd 3c7b b33e
000002e0: dfa3 1ebe 78c2 74bd c41c a6be 006e 243c
000002f0: 6ebb 5dbd 198a 44be 6b4a 773e 7d67 c1bd
00000300: 186d 923f 938c be3e cfcc f93e ed70 813e
00000310: c178 01be 2b03 9abf f14d 953e 3eba 2b3e
00000320: b8d5 693e 7711 b43e ed35 893e 9d0a 4b3e
00000330: 0198 2f3e feb5 34bf 0c1d 173e 31eb 273f
00000340: f5aa cebe 0894 29be 9cc0 10bf e7b5 e7bb
00000350: df9b 103e a232 1b3f 19fa bfbe de1f 803e
00000360: 5cc9 923e 1887 da3e 3338 503f 937f 253e
00000370: 4528 debe 448f 79be ca5e d03c cd1b 84bd
00000380: 023f 0fbe fc51 9c3e 3c4a 7abc 0245 59be
00000390: a54e 03bc 273a 723d fb93 50bf 0464 ccbd
000003a0: c857 9c3e 4842 d63e 66c9 253e c9d3 b83d
000003b0: 599c d23d 4485 85bd a866 193f 946c 70bc
000003c0: 253e 33be 211e 673d a0bc 79bb 82e5 bdbe
000003d0: 2f9d 78be 1e42 43be dcd7 03be 2eb7 38bd
000003e0: e9a1 c33e 16b3 3bbf 5326 913d eabd 3f3e
000003f0: fa96 cb3d 39a7 11bb cae1 c8be 33cd a43e
